uav_actor_phase2.pth (torch, 48103 bytes, 7 tensors)

log_std f4 [3]
-0.015322432 -0.017799519 0.006344264
00000000: f00a 7bbc 4cd0 91bc 8be3 cf3b

net.0.weight f4 [128, 21]
-0.17898174 -0.036568936 0.1589883 -0.05213896 0.13325448 -0.012284973 0.19705538 0.21153925
0.017992951 -0.033858232 -0.15970042 0.15584427 -0.09704546 0.14502509 0.10506717 -0.057823956
0.09078587 0.1702429 -0.0375748 0.07762204 -0.062631644 -0.12239024 -0.15513407 -0.16622987
0.15848705 0.16615984 -0.093504086 -0.03394915 0.13516852 -0.18423772 0.117655136 0.085629076
-0.003502808 -0.20318078 0.15719014 0.13211311 -0.0007309313 0.21824807 -0.07822203 0.10100219
0.050928574 -0.19047026 0.12419409 -0.047103614 -0.006707984 -0.08312882 0.109951496 0.061436724
0.057130508 0.06440548 0.15017645 -0.15705931 0.14666978 0.17042735 -0.15232503 0.0049602143
0.08993013 0.17250358 -0.04432537 -0.2127669 -0.15999015 0.1998092 -0.05722076 0.078300335
0.018456846 0.13774088 0.0918053 0.010226095 -0.21820283 0.0020483786 -0.16491595 -0.045831792
0.078153335 -0.0033223915 -0.15458404 -0.17340493 0.15232366 -0.039885763 -0.1037317 0.18561795
-0.021235196 -0.012243893 -0.0067916447 -0.07254609 -0.12583466 -0.11195433 -0.014830973 -0.0407339
-0.123138584 0.17718758 0.13973957 -0.08393151 0.052461896 -0.19777878 0.10694022 0.04284567
-0.14851996 0.08451709 0.16186364 0.21599817 0.08219024 -0.19182315 0.21568225 0.08084953
0.19416012 0.20484416 -0.12200507 0.019325033 -0.17248318 -0.21331285 0.22005129 -0.032826018
0.116454564 -0.09592736 -0.08265236 -0.11855739 -0.13694023 -0.13903873 0.05579491 0.09347316
-0.15519075 -0.12851495 0.15602404 0.12084916 -0.08912301 0.13089593 -0.017052887 -0.21800774
-0.18988079 -0.13359283 -0.033777535 -0.09484723 -0.17354679 0.061534077 0.0041263215 -0.08888441
0.035414692 -0.13312598 -0.086180516 0.027419498 -0.11688828 0.09086444 0.17327163 0.2213442
0.033705033 0.15769504 0.15263592 -0.024981681 0.092928484 -0.023760084 0.018316016 -0.09434538
-0.2040749 -0.19764252 -0.161309 -0.13717003 -0.19034638 -0.00912866 -0.22309402 -0.030564338
-0.052177325 0.10624467 0.044596616 0.022263248 -0.073128976 0.18609433 -0.2266204 0.17530559
0.14983629 0.13309616 -0.12165763 -0.1250987 0.20427099 -0.049983837 -0.20575702 -0.01657473
-0.12156644 0.07363765 -0.14403345 -0.105224155 -0.14312063 -0.17612499 -0.057155825 0.0024009298
0.14828838 0.11629499 -0.19544478 0.11889696 0.21720894 0.097584926 0.11556878 -0.07395831
0.18211174 -0.18833509 0.08915649 -0.04386743 0.19229145 0.13876963 0.20786272 -0.008040783
0.15581207 0.17745504 0.07331804 -0.18011357 0.029533232 -0.09598771 0.10124468 -0.026362967
0.120854326 0.10795052 -0.0986621 -0.14740841 -0.07126758 -0.114015795 0.14119853 0.18725458
0.15472944 0.033277858 0.20895602 0.019113952 0.07669371 0.045642417 -0.02361507 -0.21003535
0.14648074 0.1957628 -0.19534524 -0.1346633 -0.12445697 0.21039572 0.009606214 -0.025268426
-0.097999774 0.073670805 -0.09788912 -0.060350288 -0.21473546 -0.1580822 0.19273977 0.17527366
0.07490718 0.051592737 0.11892783 -0.020849817 -0.05343865 -0.12941377 -0.2191829 0.08185724
-0.18082723 -0.13971749 -0.15912423 0.092655115 -0.026165403 0.15387815 -0.1866744 -0.19113687
00000000: fd46 37be 4fc9 15bd d4cd 223e aa8f 55bd
00000010: dd73 083e e946 49bc e3c8 493e bf9d 583e
00000020: f465 933c eeae 0abd 8288 23be a495 1f3e
00000030: c5bf c6bd 7581 143e 752d d73d d0d8 6cbd
00000040: f1ed b93d 2854 2e3e 09e8 19bd 4ef8 9e3d
00000050: 0545 80bd bca7 fabd 77db 1ebe 2a38 2abe
00000060: 6e4a 223e ce25 2a3e 127f bfbd 440e 0bbd
00000070: 9e69 0a3e d0a8 3cbe 2df5 f03d 4c5e af3d
00000080: 5e8f 65bb 9f0e 50be 74f6 203e a948 073e
00000090: f89b 3fba 6c7c 5f3e df32 a0bd 3cda ce3d
000000a0: 7b9a 503d a30a 43be 7959 fe3d b8ef 40bd
000000b0: a6ce dbbb 713f aabd 402e e13d 13a5 7b3d
000000c0: ae01 6a3d 05e7 833d dbc7 193e 28d4 20be
000000d0: 9a30 163e 8284 2e3e 18fb 1bbe 4b89 a23b
000000e0: 4a2d b83d c7a4 303e 858e 35bd 91df 59be
000000f0: 75d4 23be c89a 4c3e 5160 6abd ed5b a03d
00000100: d032 973c f20b 0d3e 6b04 bc3d 5a8b 273c
00000110: 9070 5fbe 173e 063b badf 28be 1eba 3bbd
00000120: db0e a03d 7bbc 59bb 474b 1ebe 1091 31be
00000130: bcfa 1b3e 415f 23bd 4971 d4bd a212 3e3e
00000140: 6ff5 adbc 9c9a 48bc 728c debb 0b93 94bd
00000150: cdda 00be 5048 e5bd 9cfd 72bc 97d8 26bd
00000160: 1530 fcbd a970 353e e417 0f3e 49e4 abbd
00000170: 49e2 563d 8586 4abe 7903 db3d f17e 2f3d
00000180: 9e15 18be 4c17 ad3d 95bf 253e a02e 5d3e
00000190: 5b53 a83d 4a6d 44be cfdb 5c3e 7094 a53d
000001a0: e9d1 463e abc2 513e cbdd f9bd 884f 9e3c
000001b0: 6e9f 30be af6e 5abe 2055 613e 9374 06bd
000001c0: bb7f ee3d 9075 c4bd a445 a9bd 38ce f2bd
000001d0: 0f3a 0cbe 2b60 0ebe 3489 643d db6e bf3d
000001e0: 53ea 1ebe 6c99 03be c4c4 1f3e c47f f73d
000001f0: 2086 b6bd 9509 063e 7fb2 8bbc 6c3d 5fbe
00000200: 1c70 42be 8fcc 08be 505a 0abd 443f c2bd
00000210: 40b6 31be 280b 7c3d 1836 873b 0809 b6bd
00000220: ff0e 113d 2d52 08be 697f b0bd db9e e03c
00000230: 1f63 efbd 2317 ba3d 1e6e 313e 0ea8 623e
00000240: 4a0e 0a3d cf7a 213e 974c 1c3e 62a6 ccbc
00000250: 4a51 be3d 82a4 c2bc 780b 963c 2738 c1bd
00000260: 03f9 50be cd62 4abe 302e 25be 4d76 0cbe
00000270: 29ea 42be 6090 15bc c272 64be 1062 fabc
00000280: e4b7 55bd ce96 d93d f1aa 363d 6a61 b63c
00000290: a5c4 95bd 838f 3e3e 2e0f 68be 4f83 333e
000002a0: af6e 193e 5c4a 083e a327 f9bd e019 00be
000002b0: 6a2c 513e dabb 4cbd f8b1 52be bac7 87bc
000002c0: d3f7 f8bd 56cf 963d 817d 13be c37f d7bd
000002d0: 378e 12be 1c5a 34be 3a1c 6abd eb58 1d3b
000002e0: e9d8 173e 112c ee3d ad22 48be 4080 f33d
000002f0: 056c 5e3e 9bda c73d 53af ec3d 7477 97bd
00000300: 807b 3a3e eada 40be ae97 b63d 56ae 33bd
00000310: 0de8 443e a019 0e3e f7d9 543e 7dbd 03bc
00000320: 338d 1f3e c6b6 353e c527 963d b16f 38be
00000330: adef f13c 3495 c4bd 5f59 cf3d 26f7 d7bc
00000340: 7982 f73d 2a15 dd3d 5b0f cabd 3bf2 16be
00000350: bdf4 91bd 1d81 e9bd 5996 103e aabf 3f3e
00000360: 6571 1e3e 5d4e 083d 91f8 553e dd94 9c3c
00000370: 9811 9d3d 8bf3 3a3d 6474 c1bc 8213 57be
00000380: 0cff 153e 0b76 483e 9508 48be 2de5 09be
00000390: 4ce3 febd fa71 573e 6263 1d3c bbff cebc
000003a0: 1bb4 c8bd b8e0 963d 177a c8bd dd31 77bd
000003b0: 9de3 5bbe 4de0 21be 935d 453e f07a 333e
000003c0: f068 993d e852 533d 6f90 f33d 3ccd aabc
000003d0: 7ce2 5abd 0b85 04be 7b71 60be c5a4 a73d
000003e0: c62a 39be 1a12 0fbe 76f1 22be f7c1 bd3d
000003f0: d458 d6bc 3c92 1d3e 9327 3fbe 62b9 43be

net.0.bias f4 [128]
-0.06948118 -0.16622801 0.092537425 -0.067075595 -0.106739625 0.114736356 -0.1519169 0.15100619
0.22071129 0.1674898 -0.20293969 -0.12632872 -0.08753181 0.10054572 0.100965045 0.15070155
0.15848783 0.1572026 0.12895016 0.22629355 -0.117656864 0.1619473 -0.105984904 -0.02793073
0.008212026 -0.2006748 0.07094174 -0.008621598 0.047533322 0.101176366 0.036520563 -0.03719317
0.05828114 0.124899134 0.08343815 -0.08813623 0.16096877 -0.20522952 -0.033451233 0.04031696
0.1445704 0.21394768 0.019441083 -0.08056824 -0.17338385 -0.17787814 -0.1653911 0.16693848
-0.19195993 -0.04725498 -0.006982569 -0.14016946 -0.12589517 0.13057862 0.14134637 0.10136631
0.03544663 0.038707074 -0.15830755 0.1540682 -0.21025355 -0.14260244 0.20321374 -0.064723596
-0.10543473 0.14697841 -0.019075738 -0.19736592 0.18712537 0.11836976 -0.053221066 0.19627081
-0.13834217 0.13844284 -0.07362598 -0.18514863 0.105595626 -0.02976189 0.1527466 0.04126538
0.18901516 -0.19241129 -0.14270963 0.035728205 0.10897732 0.2041686 -0.025905903 0.041937165
-0.15684862 0.17355824 0.13152127 0.1695124 0.11977206 0.029092878 -0.016328119 0.21737508
-0.19231033 -0.06590477 0.03396599 -0.12501469 0.19582212 0.15943044 0.049515158 0.03700686
-0.038713742 -0.18414238 -0.06544226 0.1159739 -0.14053002 0.21516627 -0.19248877 -0.024610665
0.19744816 0.20096172 -0.18094912 0.19825245 -0.09900843 0.05123581 0.2050995 -0.16394877
0.12412608 -0.12167453 0.12111233 0.005645882 0.1281109 -0.18189576 0.1533006 0.042387966
00000000: 264c 8ebd ad37 2abe 4384 bd3d ee5e 89bd
00000010: 4e9a dabd e5fa ea3d 1b90 1bbe 5ea1 1a3e
00000020: 2402 623e 7282 2b3e 6ccf 4fbe 515c 01be
00000030: e143 b3bd eaea cd3d c3c6 ce3d 8251 1a3e
00000040: a24a 223e b8f9 203e 830b 043e 7fb9 673e
00000050: 15f6 f0bd 83d5 253e 9d0e d9bd fcce e4bc
00000060: bc8b 063c b27d 4dbe e749 913d 9a41 0dbc
00000070: 4db2 423d 8e35 cf3d 9696 153d de57 18bd
00000080: 34b8 6e3d 1ecb ff3d 9fe1 aa3d c580 b4bd
00000090: ffd4 243e b027 52be 2904 09bd 6623 253d
000000a0: 430a 143e 1a15 5b3e e842 9f3c f600 a5bd
000000b0: 898b 31be b025 36be 495c 29be ecf1 2a3e
000000c0: 2591 44be 708e 41bd 09ce e4bb 9588 0fbe
000000d0: aaea 00be 67b6 053e 1abd 103e 2499 cf3d
000000e0: 7c30 113d 4f8b 1e3d 601b 22be 0ec4 1d3e
000000f0: b54c 57be 6006 12be 4317 503e ce8d 84bd
00000100: 2aee d7bd 8281 163e b944 9cbc 4b1a 4abe
00000110: cb9d 3f3e d86b f23d 55fe 59bd 37fb 483e
00000120: 92a9 0dbe f6c3 0d3e 38c9 96bd 9a97 3dbe
00000130: 8542 d83d 35cf f3bc 9b69 1c3e e305 293d
00000140: 318d 413e 7707 45be 7922 12be bd57 123d
00000150: 802f df3d 9311 513e 9e38 d4bc 4ec6 2b3d
00000160: ed9c 20be 40b9 313e 83ad 063e a994 2d3e
00000170: 0e4b f53d 3054 ee3c 8cc2 85bc 9397 5e3e
00000180: 00ed 44be 14f9 86bd ec1f 0b3d da03 00be
00000190: 9885 483e bc41 233e 68d0 4a3d 8194 173d
000001a0: 4d92 1ebd d28f 3cbe 9706 86bd b983 ed3d
000001b0: 1ae7 0fbe 8c54 5c3e c71b 45be 4e9c c9bc
000001c0: da2f 4a3e e9c8 4d3e ba4a 39be b102 4b3e
000001d0: efc4 cabd a4dc 513d 9a05 523e 30e2 27be
000001e0: d035 fe3d 7f30 f9bd be09 f83d 1701 b93b
000001f0: 812f 033e e242 3abe d5fa 1c3e 019f 2d3d

net.2.weight f4 [64, 128]
0.012988155 -0.023905894 0.0665506 0.04613734 -0.08122622 -0.043241564 0.02779473 0.044308804
-0.00892532 0.06689325 -0.026958354 -0.062996574 -0.094467856 0.06517928 0.044312134 0.07940995
0.009956688 -0.007535737 -0.010474887 -0.08335636 0.022145782 -0.022051018 0.061730277 -0.07250488
-0.071812965 0.037681732 0.008444749 -0.03324724 -0.0015793669 0.044532288 0.061873693 0.006694587
-0.047500025 0.04080308 0.07981662 -0.105787426 0.07788841 -0.04781012 0.012547764 0.023701927
-0.043439984 -0.1000221 0.0045603267 -0.04000749 0.0055500646 0.021287223 -0.03844151 -0.018592665
-0.051238712 0.060020752 0.09047464 0.027831553 0.104794405 -0.062067453 0.0603121 -0.00033317125
0.008229881 0.0135133425 -0.07578322 -0.040915597 -0.055250537 0.039284304 0.05065335 -0.10221285
-0.00022965262 0.025850207 -0.07883543 0.017792452 -0.0073174895 0.008114703 0.02792909 0.034626514
-0.004267428 -0.03881912 -0.075337455 0.0053397557 -0.08557937 -0.05158224 -0.015191163 0.019155527
-0.03712638 0.009304368 0.083006784 -0.047306612 -0.07104593 0.03275749 0.0012791782 -0.0066792145
0.004855997 0.051908124 0.09042021 -0.026675152 -0.016471554 0.029233312 0.034759756 0.00081054954
0.078814454 -0.07296429 -0.077216595 -0.0026514246 0.06350228 -0.019557904 -0.08381661 -0.03463773
0.03456873 -0.0066613127 0.026079157 -0.00019653184 -0.010202058 0.054998003 0.061887946 -0.0048812497
0.04948458 -0.008897329 -0.054915976 0.0745296 0.053638075 0.017990151 -0.04239753 -0.049637213
-0.038421188 0.018525032 0.073641166 0.089739 0.024416525 -0.07374835 -0.051624496 0.096319154
-0.027265018 -0.011057263 -0.056179516 -0.011176962 -0.031457704 0.033668727 -0.043387108 -0.029423084
0.056406368 0.086549826 -0.022489354 0.02188489 -0.08914505 -0.0023134921 0.028164364 0.057995018
0.029819787 -0.0313549 0.048065703 -0.015197218 0.012486065 -0.013946362 0.028375762 -0.028641082
-0.014474637 -0.07776956 -0.081570774 0.04853429 0.032858025 0.010170716 0.05770836 0.011328528
0.056312334 -0.06426625 0.05622538 0.02336951 -0.002983575 -0.059688944 -0.043474667 -0.047564436
0.053563442 -0.00015339824 0.046211943 0.068297334 -0.007215659 0.09147044 -0.044900984 0.075643264
-0.06519873 0.020031866 0.05563645 0.014106423 0.053811196 -0.041601438 -0.07087506 -0.038481947
0.003163986 -0.018965978 -0.08840898 0.088722244 0.08664507 0.10379454 0.033425648 -0.1052319
0.044050764 -0.056135513 0.04070284 -0.04525538 -0.048380177 0.088776425 -0.07039792 -0.014914396
0.076506965 0.05099556 0.0639969 0.05220069 -0.05985462 0.020014068 0.0061640507 0.0272112
-0.033582915 0.073741466 -0.095527075 0.049913596 0.011754259 0.03500252 -0.041724786 -0.033660002
0.04846514 -0.076299995 -0.066718645 0.03830506 -0.0016567684 0.008478591 0.06431656 0.0068053273
0.044161692 0.021891916 -0.046198845 -0.06859394 0.05877035 -0.034593742 -0.06282215 -0.048691463
0.06417861 0.06310564 0.06315359 0.032296 -0.09671496 0.05498895 0.056943156 0.09171943
-0.024150593 -0.08776855 0.021127967 0.06325074 0.019078547 -0.017110568 0.03723323 -0.030160733
0.017671507 0.008922792 0.0628004 0.067288436 0.062787876 -0.074574694 0.037726246 0.08589832
00000000: 45cc 543c 4bd6 c3bc ae4b 883d 82fa 3c3d
00000010: ef59 a6bd 111e 31bd c6b1 e33c 267d 353d
00000020: 813b 12bc 54ff 883d c4d7 dcbc 5904 81bd
00000030: 5d78 c1bd b77c 853d a480 353d afa1 a23d
00000040: 6021 233c 58ee f6bb dc9e 2bbc bdb6 aabd
00000050: 126b b53c 56a4 b4bc e3d8 7c3d 707d 94bd
00000060: ad12 93bd 2958 1a3d d85b 0a3c 422e 08bd
00000070: c202 cfba 7d67 363d 456f 7d3d 445e db3b
00000080: 638f 42bd 2121 273d e576 a33d 14a7 d8bd
00000090: f583 9f3d 8bd4 43bd 2395 4d3c 8b2a c23c
000000a0: 20ee 31bd 63d8 ccbd cb6e 953b e5de 23bd
000000b0: 51dd b53b 8b62 ae3c d874 1dbd a54f 98bc
000000c0: afdf 51bd 52d8 753d c54a b93d fffe e33c
000000d0: 739e d63d 713a 7ebd d209 773d 7dad aeb9
000000e0: 9fd6 063c 1167 5d3c 3c34 9bbd 1d97 27bd
000000f0: 634e 62bd 94e8 203d e379 4f3d f854 d1bd
00000100: e8ce 70b9 d0c3 d33c 7874 a1bd 7ac1 913c
00000110: 8dc7 efbb 88f3 043c 8ccb e43c 88d4 0d3d
00000120: c8d5 8bbb cc00 1fbd 864a 9abd 1ef9 ae3b
00000130: 3d44 afbd e647 53bd 5be4 78bc 0dec 9c3c
00000140: d511 18bd 5971 183c 76ff a93d 94c4 41bd
00000150: 8780 91bd b82c 063d 19aa a73a 50dd dabb
00000160: 0e1f 9f3b 9d9d 543d 3b2e b93d d985 dabc
00000170: 5aef 86bc b37a ef3c 3f60 0e3d 0f7b 543a
00000180: 7969 a13d 4d6e 95bd bc23 9ebd 86c3 2dbb
00000190: 7c0d 823d e637 a0bc 0ba8 abbd 4be0 0dbd
000001a0: f197 0d3d 2447 dabb f5a3 d53c 1d14 4eb9
000001b0: 8826 27bc 9645 613d 377e 7d3d e4f2 9fbb
000001c0: 58b0 4a3d 1ac6 11bc 93ef 60bd faa2 983d
000001d0: 99b3 5b3d 1560 933c 08a9 2dbd 6450 4bbd
000001e0: 895f 1dbd cfc1 973c 2ed1 963d 15c9 b73d
000001f0: 2a05 c83c 6009 97bd 3574 53bd fa42 c53d
00000200: e35a dfbc 8629 35bc 7e1c 66bd 941f 37bc
00000210: cbd9 00bd 38e8 093d aeb6 31bd ae08 f1bc
00000220: 5d0a 673d 0941 b13d 983b b8bc f147 b33c
00000230: ae91 b6bd f59d 17bb f4b8 e63c 2f8c 6d3d
00000240: a048 f43c ff6d 00bd 8be0 443d c1fd 78bc
00000250: 5a92 4c3c 487f 64bc 4974 e83c b4a0 eabc
00000260: 0727 6dbc a645 9fbd 940e a7bd e4cb 463d
00000270: 2396 063d 13a3 263c 9a5f 6c3d 4a9b 393c
00000280: c3a7 663d 069e 83bd 964c 663d 6a71 bf3c
00000290: 1588 43bb 657c 74bd 7e12 32bd edd2 42bd
000002a0: 5765 5b3d 87d9 20b9 bc48 3d3d 79df 8b3d
000002b0: 5671 ecbb db54 bb3d 18ea 37bd dbea 9a3d
000002c0: e986 85bd de19 a43c 0ce3 633d a01e 673c
000002d0: 2169 5c3d 4566 2abd f226 91bd 3f9f 1dbd
000002e0: e05a 4f3b 8a5e 9bbc c40f b5bd 02b4 b53d
000002f0: f872 b13d 3b92 d43d 55e9 083d d383 d7bd
00000300: 936e 343d 5aee 65bd 05b8 263d b55d 39bd
00000310: 4b2a 46bd 6ad0 b53d c92c 90bd 835b 74bc
00000320: afaf 9c3d b8e0 503d cf10 833d 64d0 553d
00000330: 1e2a 75bd 8bf4 a33c cefb c93b 06ea de3c
00000340: 3d8e 09bd c405 973d b3a3 c3bd 3372 4c3d
00000350: ef94 403c cd5e 0f3d 9ce7 2abd 12df 09bd
00000360: 6283 463d 2c43 9cbd c9a3 88bd c4e5 1c3d
00000370: ec27 d9ba cae9 0a3c 67b8 833d 39ff de3b
00000380: e4e2 343d ad56 b33c 003b 3dbd fb7a 8cbd
00000390: 2eb9 703d 2bb2 0dbd e6a8 80bd b370 47bd
000003a0: 1370 833d 883d 813d ab56 813d cf48 043d
000003b0: 7e12 c6bd 183c 613d 3a3d 693d 66d7 bb3d
000003c0: 77d7 c5bc ffbf b3bd 8f14 ad3c 9b89 813d
000003d0: 9d4a 9c3c 762b 8cbc df81 183d a413 f7bc
000003e0: d6c3 903c e730 123c 7f9d 803d 85ce 893d
000003f0: ee96 803d 9eba 98bd d686 1a3d 75eb af3d

net.2.bias f4 [64]
-0.0016086964 -0.016485522 -0.06880442 -0.0811633 -0.038718253 -0.010704211 0.08754954 0.049362976
0.05089378 -0.068662606 0.017554572 -0.06221222 0.04744646 0.06625088 -0.032596372 0.0019861863
-0.027832756 0.060971666 0.04886715 -0.08981496 -0.02290914 -0.07341396 -0.061505344 -0.08721233
0.019108493 -0.06046085 0.02640714 -0.082782455 -0.005297443 0.07233041 -0.077195786 0.038221408
0.0033342706 -0.045276873 0.0090056155 0.0376833 -0.07697643 0.086714044 0.04031399 -0.054883588
0.087707914 -0.07460127 0.05312174 0.03680448 -0.09011367 0.08514389 0.07731059 0.01729645
-0.05845449 0.08249081 0.04382643 0.00021975036 -0.07713343 -0.019061575 0.038235642 -0.008351831
-0.07682918 0.026778582 0.054728303 -0.08396235 -0.033751696 0.027114574 0.06294618 -0.059048567
00000000: e5da d2ba a50c 87bc 55e9 8cbd f238 a6bd
00000010: 0897 1ebd b760 2fbc 2c4d b33d d530 4a3d
00000020: ff75 503d fb9e 8cbd 9bce 8f3c 3ed2 7ebd
00000030: 3857 423d 8bae 873d c683 05bd ad2a 023b
00000040: 8501 e4bc 6dbd 793d ec28 483d e8f0 b7bd
00000050: f3ab bbbc 0f5a 96bd 07ed 7bbd 619c b2bd
00000060: 6a89 9c3c cca5 77bd c953 d83c d989 a9bd
00000070: 2c96 adbb f721 943d d318 9ebd 0d8e 1c3d
00000080: c783 5a3b 3e74 39bd 4a8c 133c ce59 1a3d
00000090: d2a5 9dbd 2297 b13d 4820 253d 9dcd 60bd
000000a0: 35a0 b33d 8dc8 98bd 2f96 593d 4bc0 163d
000000b0: 848d b8bd eb5f ae3d 0455 9e3d 49b1 8d3c
000000c0: fa6d 6fbd f1f0 a83d 5883 333d ca6c 6639
000000d0: 22f8 9dbd 0527 9cbc fa9c 1c3d 1ed6 08bc
000000e0: 9e58 9dbd c25e db3c c92a 603d 74f4 abbd
000000f0: 383f 0abd 621f de3c ede9 803d e9dc 71bd

net.4.weight f4 [3, 64]
-0.1003899 -0.07995639 -0.11049523 0.057703212 0.05056861 0.011348555 -0.08558823 0.06978626
0.082927 -0.049982797 -0.10590874 -0.11938947 -0.10901301 0.07307278 -0.018612832 0.1223049
-0.093135506 0.096377075 0.12874226 -0.09749358 0.059152357 -0.10848882 0.08674071 -0.0272425
-0.0040819095 0.0039882697 -0.09546344 -0.068895735 0.05009523 -0.12353187 -0.009858831 0.042769626
-0.122039534 0.14351135 -0.055834193 0.046469495 0.032329332 -0.10846251 -0.11699987 0.028225146
0.12985536 0.0011761414 -0.074533805 -0.031288613 -0.012917411 -0.0904901 -0.095323086 0.1259453
0.02531709 0.032209367 0.118837416 -0.076809436 -0.094975784 -0.063256785 -0.027818535 0.06389293
0.04527648 -0.07468436 0.09020766 -0.02574629 0.015836686 -0.08453718 0.115596354 0.11231719
0.14384796 0.045798402 -0.050624806 -0.056924704 -0.027104765 0.08907588 -0.11476799 -0.098283514
0.096212834 0.016088024 0.06720444 0.06609314 0.03643769 -0.09080662 0.03516114 0.09980212
0.053347554 -0.0641116 0.025498984 -0.0050412286 0.12284207 -0.104800746 -0.038621455 0.11991846
0.112623625 -0.0811333 -0.038991302 -0.08221115 -0.026548376 -0.11356899 -0.037372008 0.05332254
0.0139521565 0.004550379 0.1044687 0.05776462 -0.071400605 -0.007090192 -0.096319556 -0.05666994
0.08553806 -0.067708194 0.07228046 -0.15410325 0.023599703 0.009932766 0.017728949 0.12622176
0.10530658 -0.12349149 0.14143625 -0.07004828 0.05964391 -0.003593342 -0.13631825 -0.015834413
-0.05903339 -0.050099537 -0.011889934 -0.07217462 0.106570005 -0.010743712 0.062412832 -0.08647066
0.06365299 -0.03233864 0.015588089 0.1209995 -0.05799648 -0.062186405 0.010861526 0.07176763
0.030622492 0.089820124 -0.079839036 -0.07450295 -0.0052551497 -0.076624304 -0.082187355 0.052727498
-0.09365115 0.08448041 -0.09351938 -0.037638694 -0.0400858 -0.020906854 0.054676283 0.074406326
-0.048751414 -0.054767303 -0.10311504 -0.13815565 0.047484715 0.06267461 0.037565272 -0.099012926
0.052035417 -0.09097277 -0.08316172 -0.090262294 0.0921728 0.1033771 -0.004853862 0.005593536
-0.052007772 0.09181845 -0.05013682 -0.065477036 -0.122684486 -0.03171686 -0.11311591 -0.020670848
-0.0014432904 0.07506899 0.01363844 0.015249897 0.05166237 0.03998319 0.121834524 0.13850053
0.09382814 -0.022646513 -0.044652846 -0.094343945 0.08408771 -0.006262184 0.011287628 -0.004532048
00000000: 3899 cdbd 2dc0 a3bd 534b e2bd 345a 6c3d
00000010: 0821 4f3d 4aef 393c e248 afbd 19ec 8e3d
00000020: a2d5 a93d c3ba 4cbd aee6 d8bd 7782 f4bd
00000030: 3742 dfbd 2fa7 953d f079 98bc fe7a fa3d
00000040: d4bd bebd 5861 c53d 03d5 033e b7aa c7bd
00000050: be49 723d 632f debd 1da5 b13d aa2b dfbc
00000060: 8ac1 85bb 08b0 823b 5682 c3bd 3519 8dbd
00000070: a830 4d3d 47fe fcbd ef86 21bc 342f 2f3d
00000080: ddef f9bd a4f4 123e 65b2 64bd cc56 3e3d
00000090: c36b 043d 9821 debd a19d efbd 6c38 e73c
000000a0: cef8 043e c228 9a3a 2ea5 98bd 7d28 00bd
000000b0: 8ca3 53bc e052 b9bd c038 c3bd cef7 003e
000000c0: c965 cf3c f8ed 033d 0861 f33d 444e 9dbd
000000d0: aa82 c2bd c68c 81bd b2e3 e3bc 4cda 823d
000000e0: d573 393d 1df4 98bd cbbe b83d e2e9 d2bc
000000f0: f0bb 813c d421 adbd c8bd ec3d 8e06 e63d
00000100: e14c 133e 1b97 3b3d f55b 4fbd e129 69bd
00000110: d00a debc 6a6d b63d 7b0b ebbd de48 c9bd
00000120: 3c0b c53d 08cb 833c 7ba2 893d d75b 873d
00000130: b03f 153d d2f8 b9bd 2105 103d 0e65 cc3d
00000140: f782 5a3d f14c 83bd 3fe3 d03c e430 a5bb
00000150: a094 fb3d c6a1 d6bd 8831 1ebd cf97 f53d
00000160: 37a7 e63d 3729 a6bd 58b5 1fbd 525e a8bd
00000170: fb7b d9bc dc96 e8bd 6413 19bd bc68 5a3d
00000180: 9697 643c 581b 953b b0f3 d53d 989a 6c3d
00000190: 7b3a 92bd d754 e8bb 3043 c5bd bd1e 68bd
000001a0: 942e af3d 98aa 8abd c707 943d 3ecd 1dbe
000001b0: 2a54 c13c 0abd 223c 4d3c 913c 4740 013e
000001c0: faaa d73d 1be9 fcbd aad4 103e 7975 8fbd
000001d0: 2c4d 743d 467e 6bbb 0397 0bbe 2cb7 81bc
000001e0: ffcc 71bd 2c35 4dbd ffcd 42bc 4ad0 93bd
000001f0: 6041 da3d 6506 30bc 99a4 7f3d 8817 b1bd
00000200: 805c 823d 8675 04bd 2f65 7f3c 96ce f73d
00000210: b88d 6dbd 2cb7 7ebd 8bf4 313c e8fa 923d
00000220: 05dc fa3c 9df3 b73d a682 a3bd 0195 98bd
00000230: 6433 acbb 34ed 9cbd d851 a8bd caf8 573d
00000240: 2dcc bfbd 1104 ad3d 1787 bfbd 082b 1abd
00000250: 0231 24bd da44 abbc 3df4 5f3d 5862 983d
00000260: 90af 47bd ae53 60bd fa2d d3bd ad78 0dbe
00000270: 557f 423d 8c5b 803d 0bde 193d 4ac7 cabd
00000280: 1723 553d ee4f babd b150 aabd 70db b8bd
00000290: 18c5 bc3d 5fb7 d33d 250d 9fbb fb49 b73b
000002a0: 1a06 55bd 500b bc3d 445c 4dbd d318 86bd
000002b0: 0142 fbbd 8ae9 01bd 50a9 e7bd e955 a9bc
000002c0: ca2c bdba c5bd 993d c373 5f3c b4da 793c
000002d0: ec9b 533d 6ac5 233d 6184 f93d 15d3 0d3e
000002e0: f828 c03d 2e85 b9bc e7e5 36bd 6637 c1bd
000002f0: 2d36 ac3d 0233 cdbb beef 383c 9381 94bb

net.4.bias f4 [3]
-0.102575555 0.09545224 0.08656691
00000000: 2213 d2bd 777c c33d fe49 b13d
