uav_actor_a2c.pth (torch, 48070 bytes, 7 tensors)

log_std f4 [3]
0	0xbc777ecb	-0.015105913
1	0xbcb70f8d	-0.022346282
2	0x3bfa2c27	0.007634658

net.0.weight f4 [128, 21]
0	0xbe3d7efc	-0.18505472
1	0xbd356870	-0.044289052
2	0x3e2077ee	0.1567075
3	0xbd38138e	-0.044940524
4	0x3e0bc0cc	0.13647765
5	0xbc86f9e7	-0.016476585
6	0x3e5215cc	0.20516127
7	0x3e59d5e7	0.21273004
8	0x3c655dd8	0.013999425
9	0xbcfe4079	-0.031036602
10	0xbe219e1d	-0.15782972
11	0x3e2129d2	0.1573861
12	0xbdc25b87	-0.09490114
13	0x3e16ee8d	0.14739437
14	0x3ddcb31e	0.107763514
15	0xbd614a21	-0.055002335
16	0x3dc1eecb	0.09469374
17	0x3e3264b1	0.17421223
18	0xbd0892f4	-0.03334327
19	0x3da30edc	0.079618186
20	0xbd7f53d8	-0.06233582
21	0xbdfde1e7	-0.12396603
22	0xbe26a816	-0.16275057
23	0xbe24303c	-0.16034025
24	0x3e2665a1	0.16249706
25	0x3e326074	0.17419606
26	0xbdc683ce	-0.096931085
27	0xbce43249	-0.02785601
28	0x3e11672b	0.14199512
29	0xbe3fca4e	-0.18729517
30	0x3df4c08b	0.11950787
31	0x3db2254d	0.08698521
32	0xbb422f52	-0.0029630256
33	0xbe4fcf6a	-0.20293966
34	0x3e224104	0.15845114
35	0x3e0a5ae6	0.13511238
36	0x3a93046d	0.0011216529
37	0x3e625dfb	0.22106163
38	0xbd982420	-0.07428765
39	0x3dd62f80	0.10458279
40	0x3d5ec31b	0.054385286
41	0xbe3fd019	-0.18731727
42	0x3e015782	0.12631038
43	0xbd34c760	-0.04413545
44	0xbc04be31	-0.008101986
45	0xbdb44a93	-0.088032864
46	0x3dd9503e	0.10611008
47	0x3d87f438	0.06638378
48	0x3d44bacc	0.048029706
49	0x3d811d44	0.0630441
50	0x3e19b9fe	0.15012357
51	0xbe1cbe35	-0.15306933
52	0x3e1aec33	0.15129165
53	0x3e339c0d	0.17539997
54	0xbe165fb9	-0.14684953
55	0x3c119227	0.008884943
56	0x3dbdfdbe	0.09276913
57	0x3e34baba	0.17649356
58	0xbd2b2c6d	-0.041790415
59	0xbe57c1e7	-0.21070062
60	0xbe1fc5d9	-0.15602817
61	0x3e51482b	0.20437686
62	0xbd57b4f4	-0.052662805
63	0x3daa7e9b	0.08324929
64	0x3c4e8a33	0.012606191
65	0x3e157ed5	0.14599164
66	0x3dba2598	0.09089202
67	0x3bddf5b0	0.006773673
68	0xbe619f43	-0.2203341
69	0x3b7cc751	0.003857095
70	0xbe3088d2	-0.17239693
71	0xbd61c5f7	-0.055120435
72	0x3daa1794	0.083052784
73	0x3ae8dc5f	0.0017765871
74	0xbe1645ef	-0.14675115
75	0xbe289454	-0.16462833
76	0x3e21cd14	0.15800887
77	0xbd1024a0	-0.03519118
78	0xbdca6890	-0.09883225
79	0x3e43003b	0.19043057
80	0xbc85eb85	-0.016347656
81	0xbbdeed78	-0.006803211
82	0xba3e90ce	-0.00072695024
83	0xbd864ca7	-0.06557589
84	0xbe06fb22	-0.13181737
85	0xbdeadd95	-0.11468045
86	0xbc776aec	-0.015101176
87	0xbd03167e	-0.032003872
88	0xbdf45aea	-0.11931403
89	0x3e3150b2	0.17315939
90	0x3e163bd4	0.1467126
91	0xbda7a4f3	-0.081857584
92	0x3d56f28f	0.052477416
93	0xbe4b70a9	-0.19867195
94	0x3dd77336	0.105200216
95	0x3d2878d8	0.04113087
96	0xbe18e172	-0.1492975
97	0x3dad0103	0.084474586
98	0x3e260183	0.16211514
99	0x3e5c447c	0.215105
100	0x3da97c28	0.08275634
101	0xbe437e46	-0.19091138
102	0x3e5c76db	0.21529715
103	0x3da2679c	0.07929918
104	0x3e44d877	0.192232
105	0x3e50c841	0.20388891
106	0xbdf8b57e	-0.12143992
107	0x3c6470e4	0.013942931
108	0xbe2ec889	-0.17068686
109	0xbe55c163	-0.20874552
110	0x3e66d3bd	0.22541709
111	0xbd07cd53	-0.033154797
112	0x3df8e92f	0.12153851
113	0xbdb47496	-0.088112995
114	0xbda7caf0	-0.08193004
115	0xbdeedbdb	-0.11663028
116	0xbe0a3518	-0.13496816
117	0xbe0a6a50	-0.13517118
118	0x3d7604ca	0.06006316
119	0x3dc64ccf	0.09682619
120	0xbe1e2d01	-0.15446855
121	0xbe0012a9	-0.12507118
122	0x3e24caf6	0.16093048
123	0x3e014a03	0.1262589
124	0xbdad8c4a	-0.08474024
125	0x3e095567	0.13411485
126	0xbc8ac2c2	-0.01693857
127	0xbe6401dd	-0.22266336
128	0xbe408633	-0.18801193
129	0xbe0459f8	-0.12924945
130	0xbcca9904	-0.024731167
131	0xbdc5ae78	-0.09652418
132	0xbe2c338e	-0.16816542
133	0x3d917e9b	0.07104226
134	0x3b5fa48e	0.0034125182
135	0xbdb11550	-0.08646643
136	0x3d185bf7	0.03719708
137	0xbe073e98	-0.13207471
138	0xbdae73b9	-0.08518166
139	0x3ce96c05	0.02849389
140	0xbde9b096	-0.11410634
141	0x3dbf0adb	0.093282424
142	0x3e34ead2	0.17667702
143	0x3e66d275	0.2254122
144	0x3d1c3b3b	0.038142424
145	0x3e25a4bb	0.16176121
146	0x3e1fcb45	0.15604885
147	0xbcd5b013	-0.026084935
148	0x3dbc1296	0.091832325
149	0xbcb138cc	-0.021633528
150	0x3c9f28c8	0.019428626
151	0xbdb804ea	-0.08985312
152	0xbe523fab	-0.205321
153	0xbe48f28b	-0.19623773
154	0xbe216880	-0.1576252
155	0xbe0b38dc	-0.13595909
156	0xbe451023	-0.19244437
157	0xbc3f0582	-0.011659028
158	0xbe67b1c9	-0.22626413
159	0xbd099535	-0.03358956
160	0xbd5ef46e	-0.054432325
161	0x3dd5b3f3	0.10434713
162	0x3d2e131c	0.042498693
163	0x3ca520a7	0.020157171
164	0xbd98adf5	-0.07455055
165	0x3e3c9bb8	0.18418777
166	0xbe69456b	-0.22780387
167	0x3e31b9df	0.1735606
168	0x3e213bbb	0.15745442
169	0x3e041d62	0.12901834
170	0xbde1fd8b	-0.110346876
171	0xbe062d6a	-0.13103262
172	0x3e530bcc	0.20609969
173	0xbd530260	-0.051515937
174	0xbe58b922	-0.21164373
175	0xbc5208c1	-0.01281947
176	0xbe0376f4	-0.12838346
177	0x3da64e34	0.08120385
178	0xbe0aa9f7	-0.13541399
179	0xbdc6d2ce	-0.097081766
180	0xbe0d493f	-0.13797472
181	0xbe30394b	-0.17209356
182	0xbd5040f2	-0.050843187
183	0x3c234dad	0.00996725
184	0x3e1e4768	0.15456927
185	0x3dfc2ace	0.12312852
186	0xbe3f5622	-0.18685201
187	0x3e0316a5	0.12801607
188	0x3e67a291	0.22620608
189	0x3dd3ba04	0.10338214
190	0x3de6b6b6	0.11265318
191	0xbd889105	-0.06668285
192	0x3e33668a	0.17519584
193	0xbe3b89cd	-0.18314286
194	0x3daeb3e4	0.08530405
195	0xbd4a37fd	-0.0493698
196	0x3e491607	0.19637309
197	0x3e06ab6a	0.13151327
198	0x3e56b46d	0.20967264
199	0xbbc48b7e	-0.005998074
200	0x3e2095d7	0.1568216
201	0x3e3460ce	0.17615053
202	0x3d929849	0.07157952
203	0xbe38158e	-0.17976972
204	0x3d0061c6	0.031343244
205	0xbdc14fa7	-0.094390206
206	0x3dd2652b	0.102732025
207	0xbcc4ff22	-0.024047438
208	0x3dfe7b0d	0.12425814
209	0x3de50a95	0.11183659
210	0xbdcb8d1d	-0.099390246
211	0xbe16f404	-0.14741522
212	0xbd9332b9	-0.07187409
213	0xbde72e02	-0.11288072
214	0x3e116312	0.14197949
215	0x3e3cf683	0.18453412
216	0x3e1eb9e6	0.15500602
217	0x3d08560e	0.033285193
218	0x3e5434a4	0.20723206
219	0x3c884306	0.016633522
220	0x3d97ee18	0.0741846
221	0x3d30a3a0	0.043124795
222	0xbcd1e805	-0.02562333
223	0xbe592b76	-0.21207985
224	0x3e12939c	0.14314121
225	0x3e45ebd2	0.1932824
226	0xbe4952fc	-0.19660562
227	0xbe0bc571	-0.13649537
228	0xbe02ad53	-0.1276143
229	0x3e54b30e	0.20771429
230	0x3be63c1b	0.007026208
231	0xbcd2fc13	-0.025754964
232	0xbdc7460d	-0.09730158
233	0x3d976165	0.073916234
234	0xbdc917e2	-0.098190084
235	0xbd79fcee	-0.06103223
236	0xbe5ba9f2	-0.21451548
237	0xbe225b98	-0.15855253
238	0x3e45fba9	0.19334282
239	0x3e341317	0.17585407
240	0x3d997b48	0.07494217
241	0x3d55e3be	0.052219145
242	0x3df4b6a9	0.11948902
243	0xbca62618	-0.020281836
244	0xbd581092	-0.052750178
245	0xbe03b5df	-0.12862347
246	0xbe606851	-0.21914794
247	0x3da7b84e	0.0818945
248	0xbe3920c4	-0.18078905
249	0xbe0ecf53	-0.13946275
250	0xbe22289b	-0.15835802
251	0x3dbf000d	0.093261816
252	0xbd064a42	-0.03278566
253	0x3e1da182	0.15393642
254	0xbe3d111d	-0.1846356
255	0xbe3be4ee	-0.18349048

net.0.bias f4 [128]
0	0xbd87bdbd	-0.066279866
1	0xbe281fb1	-0.1641834
2	0x3dc61ee8	0.09673864
3	0xbd7f08e6	-0.062264346
4	0xbddb9dde	-0.1072347
5	0x3df56615	0.11982361
6	0xbe188f76	-0.14898476
7	0x3e1852d6	0.1487535
8	0x3e683dea	0.22679868
9	0x3e2c1db9	0.16808213
10	0xbe524924	-0.20535713
11	0xbe00c932	-0.1257675
12	0xbdad2e38	-0.08456081
13	0x3dd570d5	0.104219116
14	0x3dd7c918	0.105364025
15	0x3e1c1e61	0.15245964
16	0x3e258e12	0.16167477
17	0x3e21ff73	0.15820102
18	0x3e05f3e2	0.13081315
19	0x3e6806b1	0.22658803
20	0xbde9f818	-0.11424273
21	0x3e285d5e	0.16441867
22	0xbdd2cd86	-0.10293107
23	0xbcded788	-0.027202383
24	0x3c382659	0.011239612
25	0xbe471b65	-0.19444044
26	0x3d97819a	0.073977664
27	0xbbcdc139	-0.0062791375
28	0x3d59ff2d	0.05322187
29	0x3dd057a9	0.1017297
30	0x3d1f580a	0.03890232
31	0xbd12eeeb	-0.03587238
32	0x3d81f262	0.06345059
33	0x3dfe3bab	0.124137245
34	0x3dac0c47	0.08400779
35	0xbda74d97	-0.08169096
36	0x3e264995	0.16239007
37	0xbe4f0d0d	-0.20219822
38	0xbd09c3c2	-0.033633955
39	0x3d244c9c	0.040112123
40	0x3e151514	0.14558822
41	0x3e618a4b	0.22025411
42	0x3c95fd5c	0.018309288
43	0xbd9f76a0	-0.07786298
44	0xbe2fece3	-0.17180209
45	0xbe2fa537	-0.17152868
46	0xbe257ba3	-0.16160445
47	0x3e2eb343	0.1706057
48	0xbe411291	-0.18854739
49	0xbd418d87	-0.04725411
50	0xbbe4d938	-0.0069839023
51	0xbe0dca15	-0.1384662
52	0xbdf7ea58	-0.121052444
53	0x3e05bdde	0.1306071
54	0x3e123493	0.14277868
55	0x3dd77bbe	0.10521649
56	0x3d3752c4	0.044756666
57	0x3d2bf0c7	0.04197767
58	0xbe2065e8	-0.15663874
59	0x3e1e1627	0.15438138
60	0xbe534394	-0.20631248
61	0xbe0a5731	-0.13509823
62	0x3e517f62	0.20458749
63	0xbd7a303d	-0.06108116
64	0xbdd2b664	-0.102886945
65	0x3e193bad	0.14964171
66	0xbc861370	-0.01636669
67	0xbe47f4d9	-0.19526996
68	0x3e406f74	0.18792516
69	0x3df59ba6	0.11992578
70	0xbd59dbc7	-0.05318811
71	0x3e4980e2	0.19678071
72	0xbe0c15bb	-0.13680165
73	0x3e13eb67	0.14445268
74	0xbd96c85b	-0.073624335
75	0xbe3da559	-0.18520106
76	0x3dd80eaa	0.10549672
77	0xbcccd698	-0.02500467
78	0x3e1d404f	0.15356563
79	0x3d35b426	0.044361256
80	0x3e430339	0.19044198
81	0xbe447131	-0.19183804
82	0xbe124ebf	-0.14287852
83	0x3d291d65	0.0412878
84	0x3de5020d	0.11182032
85	0x3e5112fc	0.20417398
86	0xbcaf10fa	-0.0213704
87	0x3d340bd8	0.043956608
88	0xbe20e293	-0.15711431
89	0x3e3300db	0.17480795
90	0x3e09b361	0.13447334
91	0x3e2af0ec	0.16693467
92	0x3df8373b	0.121199094
93	0x3d06f104	0.032944694
94	0xbbc1d49a	-0.0059152367
95	0x3e61c206	0.2204667
96	0xbe43b199	-0.19110717
97	0xbd85d1f3	-0.06534185
98	0x3d0b6d2e	0.03403967
99	0xbdfc97b0	-0.123336196
100	0x3e4bf353	0.1991704
101	0x3e2820d2	0.1641877
102	0x3d61f79b	0.055167776
103	0x3d189a89	0.03725675
104	0xbd10da8f	-0.035364684
105	0xbe37879e	-0.17922828
106	0xbd83ad94	-0.06429592
107	0x3df26973	0.11836519
108	0xbe0a5255	-0.1350797
109	0x3e5e984e	0.21737787
110	0xbe42e735	-0.19033511
111	0xbcba8dc3	-0.022772675
112	0x3e50c0e6	0.20386085
113	0x3e4d9688	0.20076954
114	0xbe2fba55	-0.17160924
115	0x3e4cfe64	0.20018917
116	0xbdc2270f	-0.09480106
117	0x3d5482cc	0.05188255
118	0x3e57f34c	0.21088904
119	0xbe256737	-0.16152655
120	0x3e001b95	0.12510522
121	0xbdf40e32	-0.1191677
122	0x3df5320f	0.119724385
123	0x3be8734d	0.007093823
124	0x3e0395d8	0.1285013
125	0xbe36d115	-0.17853196
126	0x3e1d464e	0.1535885
127	0x3d467b0c	0.04845719

net.2.weight f4 [64, 128]
0	0x3c3ac7a3	0.011400136
1	0xbcaca2b3	-0.021073675
2	0x3d91828c	0.07104978
3	0x3d2e7cb8	0.04259941
4	0xbda51a02	-0.08061601
5	0xbd277daa	-0.040891327
6	0x3d10ebd2	0.035381146
7	0x3d31e2c3	0.043429147
8	0xb7573846	-1.2828101e-05
9	0x3d8d8015	0.06909195
10	0xbccc75ea	-0.02495857
11	0xbd811bc9	-0.06304128
12	0xbdc40668	-0.095715344
13	0x3d89b7f9	0.06724543
14	0x3d3a0c39	0.045421813
15	0x3da63143	0.08114865
16	0x3c16f6af	0.009214087
17	0xbc10368f	-0.00880207
18	0xbc4585c3	-0.012055817
19	0xbdaf6f24	-0.0856612
20	0x3ca5afa0	0.020225346
21	0xbcc8c552	-0.024508152
22	0x3d88d719	0.066816516
23	0xbd8e2149	-0.069399424
24	0xbd89c49d	-0.06726954
25	0x3d1fb498	0.038990587
26	0x3c5902da	0.013245309
27	0xbd024006	-0.03179934
28	0xbb1602c7	-0.002288984
29	0x3d4e37ba	0.050346114
30	0x3d8099d6	0.06279342
31	0x3c1d52f2	0.009602295
32	0xbd22d175	-0.039750535
33	0x3d257a5d	0.040399898
34	0x3da6f9ac	0.0815309
35	0xbde3ca11	-0.111225255
36	0x3da16e62	0.07882382
37	0xbd4cab23	-0.049967896
38	0x3c4d5ec1	0.012534798
39	0x3cc528e0	0.024067342
40	0xbd2cbaa6	-0.04217019
41	0xbdd508e1	-0.10402084
42	0x3bfe9f2a	0.0077704387
43	0xbd2f5a98	-0.042811006
44	0x3b71dfac	0.0036907
45	0x3cde6fb1	0.027152868
46	0xbd046d99	-0.032331083
47	0xbc88e631	-0.016711326
48	0xbd5ce53f	-0.053929564
49	0x3d75d7e3	0.06002034
50	0x3db94942	0.09047176
51	0x3cd87271	0.026421757
52	0x3de630ad	0.11239753
53	0xbd82038a	-0.06348331
54	0x3d7ce656	0.061743103
55	0x3b95926c	0.004564574
56	0x3c429c92	0.01187815
57	0x3c5f7669	0.013639071
58	0xbda02e36	-0.07821314
59	0xbd1f823a	-0.038942553
60	0xbd5c2871	-0.053749505
61	0x3d3b9111	0.045792643
62	0x3d480981	0.04883719
63	0xbddd9ea5	-0.10821275
64	0xbae5d1b4	-0.001753381
65	0x3cf581a8	0.029969051
66	0xbda71e08	-0.08160025
67	0x3cc39617	0.02387528
68	0xbb57f243	-0.0032950796
69	0x3c6ef806	0.014585501
70	0x3ce549ad	0.027989233
71	0x3d1a43f5	0.037662465
72	0xbaddd251	-0.0016923641
73	0xbd348fc6	-0.044082426
74	0xbd9a49e0	-0.07533622
75	0x3bb0572f	0.005381487
76	0xbdaf7bf0	-0.08568561
77	0xbd6a5232	-0.057207294
78	0xbc668308	-0.014069326
79	0x3cd0b922	0.025478903
80	0xbd181910	-0.037133276
81	0x3c3ff03c	0.011714991
82	0x3da79688	0.081830084
83	0xbd37e1ad	-0.044892956
84	0xbd9a6cdd	-0.07540295
85	0x3d063b35	0.032771308
86	0xbb32a687	-0.0027259903
87	0xbb89b81c	-0.0042028558
88	0x3bcbd156	0.006220023
89	0x3d54d1a3	0.051957738
90	0x3dc2fb19	0.09520549
91	0xbc9c405a	-0.019073654
92	0xbc8986c7	-0.0167879
93	0x3cd89f29	0.026443081
94	0x3d09b2bb	0.033617716
95	0x3bacf608	0.0052783526
96	0x3da0afa0	0.07845998
97	0xbd94bb1f	-0.07262253
98	0xbda41104	-0.08011058
99	0xbb3a578f	-0.0028433537
100	0x3d83f4b1	0.064431556
101	0xbcaa6789	-0.020801323
102	0xbdace9e9	-0.08443052
103	0xbd143c02	-0.03619004
104	0x3d1acf5d	0.037795413
105	0xbb77d861	-0.003781818
106	0x3cd3621e	0.025803622
107	0xbb401fc4	-0.0029315809
108	0xbbd11b49	-0.0063814265
109	0x3d724c69	0.0591549
110	0x3d87fb11	0.06639684
111	0xbb9ef735	-0.0048512467
112	0x3d503d95	0.05083998
113	0xbc0a77eb	-0.008451442
114	0xbd42d637	-0.047567572
115	0x3da6ddda	0.081477836
116	0x3d5d14a4	0.053974763
117	0x3ca6a9a3	0.020344561
118	0xbd05a4af	-0.032627758
119	0xbd57d8cb	-0.052696984
120	0xbd1db4d2	-0.03850252
121	0x3c62df72	0.013847219
122	0x3d94974b	0.07255419
123	0x3dc020d3	0.09381261
124	0x3cc13a1e	0.023587283
125	0xbda248ec	-0.07924065
126	0xbd55e111	-0.052216593
127	0x3dcac952	0.0990168
128	0xbcefbbf9	-0.029264437
129	0xbc194bea	-0.009356478
130	0xbd5ba2f6	-0.05362221
131	0xbc35ff98	-0.011108302
132	0xbd012115	-0.03152569
133	0x3d08e555	0.033421833
134	0xbd1a8fb8	-0.037734717
135	0xbcf72313	-0.030168092
136	0x3d8756fe	0.06608389
137	0x3db31f47	0.087462
138	0xbcb2ac8f	-0.021810798
139	0x3cb30b47	0.021855963
140	0xbdbf2c83	-0.09334662
141	0xbace793b	-0.0015752682
142	0x3cbdc21e	0.023163851
143	0x3d74d626	0.05977454
144	0x3cd13852	0.02553955
145	0xbd0a7ed0	-0.033812344
146	0x3d4060dd	0.046967376
147	0xbc880607	-0.016604437
148	0x3c2cfafc	0.010557886
149	0xbc81d3bc	-0.015848033
150	0x3cf7a488	0.030229822
151	0xbce5c2e1	-0.028047027
152	0xbc5fc5fd	-0.013658044
153	0xbd9e824f	-0.07739698
154	0xbda44184	-0.080203086
155	0x3d418aae	0.047251396
156	0x3d0bedab	0.034162205
157	0x3c54102a	0.012943307
158	0x3d6c0f02	0.0576315
159	0x3c508029	0.012725868
160	0x3d7385a6	0.05945363
161	0xbd865c78	-0.06560606
162	0x3d741ee3	0.05959977
163	0x3cc811e6	0.024422597
164	0xba1d7bbf	-0.00060075143
165	0xbd81c3a9	-0.06336147
166	0xbd320163	-0.043458354
167	0xbd41f3f9	-0.04735181
168	0x3d60c6cb	0.054877084
169	0xbba57ec4	-0.005050512
170	0x3d58942f	0.052875694
171	0x3d821b61	0.06352878
172	0xbc53c008	-0.012924202
173	0x3dc259d8	0.094897926
174	0xbd2ad9a0	-0.04171145
175	0x3da3328e	0.07968627
176	0xbd8bb5c7	-0.06821781
177	0x3ca41a1e	0.020031985
178	0x3d63e415	0.055637438
179	0x3c507a38	0.012724452
180	0x3d7bd964	0.061486617
181	0xbd288c38	-0.041149348
182	0xbd880ef5	-0.06643478
183	0xbd1013f4	-0.03517528
184	0x3c6c9fae	0.0144423675
185	0xbc8e3c00	-0.017362595
186	0xbdb99fef	-0.09063708
187	0x3dba1e1c	0.09087774
188	0x3dbea8be	0.09309529
189	0x3deb1829	0.114792176
190	0x3cd33589	0.025782363
191	0xbde24d59	-0.11049909
192	0x3d2e9300	0.04262066
193	0xbd53b9a8	-0.051690727
194	0x3d15fe61	0.036619548
195	0xbd261d52	-0.040555306
196	0xbd30c91b	-0.04316054
197	0x3db7c1f2	0.08972539
198	0xbd903fef	-0.07043444
199	0xbc0f5802	-0.00874901
200	0x3da198d1	0.078904755
201	0x3d4b06ba	0.04956696
202	0x3d831189	0.06399829
203	0x3d55b130	0.052170932
204	0xbd752d27	-0.059857514
205	0x3c9cfedf	0.0191645
206	0x3beff3ad	0.0073227496
207	0x3d001d99	0.031278227
208	0xbcfe3823	-0.031032627
209	0x3d9e6fb8	0.077361524
210	0xbdc64f54	-0.096830994
211	0x3d612a5a	0.05497203
212	0x3c11a340	0.0088890195
213	0x3d0f675a	0.035010673
214	0xbd2a737a	-0.041614033
215	0xbd08d341	-0.033404592
216	0x3d47bd34	0.048764423
217	0xbd9c7bc4	-0.07640794
218	0xbd7cffe5	-0.061767478
219	0x3d29c162	0.04144419
220	0x39eb0453	0.00044825915
221	0x3b3f804b	0.0029220756
222	0x3d6d1baa	0.05788771
223	0x3c01fd37	0.007933906
224	0x3d328fb4	0.043594077
225	0x3cb39bcd	0.021924878
226	0xbd46bac1	-0.048517946
227	0xbd8ed912	-0.069749966
228	0x3d608448	0.054813653
229	0xbd1b0d63	-0.037854563
230	0xbd872b9b	-0.06600114
231	0xbd492c5a	-0.049114563
232	0x3d827a54	0.063709885
233	0x3d819217	0.063266926
234	0x3d83d704	0.06437495
235	0x3d03ea71	0.032206003
236	0xbdccae94	-0.09994236
237	0x3d633fb2	0.055480666
238	0x3d7f3f5d	0.062316287
239	0x3dbf0761	0.09327579
240	0xbce36787	-0.027759327
241	0xbdb5ecdc	-0.08883068
242	0x3cb72246	0.02235521
243	0x3d879715	0.066206135
244	0x3cb241ac	0.02175983
245	0xbc748467	-0.014924145
246	0x3d31d36d	0.043414522
247	0xbd0be137	-0.03415033
248	0x3cabe21a	0.020981837
249	0x3bde38bd	0.006781666
250	0x3d7aa811	0.061195437
251	0x3d8d69d0	0.06904948
252	0x3d8319d0	0.06401408
253	0xbda88eb0	-0.082303405
254	0x3d176acb	0.03696708
255	0x3dae3e70	0.08508003

net.2.bias f4 [64]
0	0xb8122d36	-3.485122e-05
1	0xbc83d8ac	-0.016094528
2	0xbd8c3ae1	-0.06847168
3	0xbda6376c	-0.0811604
4	0xbd1c13e5	-0.03810491
5	0xbc11585b	-0.008871163
6	0x3db44338	0.088018835
7	0x3d4b00d6	0.049561344
8	0x3d546884	0.051857486
9	0xbd8c9ccf	-0.06865846
10	0x3c8d2411	0.017229112
11	0xbd756242	-0.05990816
12	0x3d42697e	0.047463886
13	0x3d899274	0.06717387
14	0xbd05b5f4	-0.032644227
15	0x3b1ebc8b	0.0024221267
16	0xbceb9de1	-0.028761806
17	0x3d7b00c8	0.061280042
18	0x3d54d8d5	0.0519646
19	0xbdb9b243	-0.09067204
20	0xbcba034b	-0.022706648
21	0xbd95b818	-0.07310504
22	0xbd7a6f19	-0.061141107
23	0xbdace3c3	-0.084418796
24	0x3c9cbaff	0.019132135
25	0xbd79459d	-0.060857404
26	0x3ce069bf	0.027394174
27	0xbda63e6f	-0.08117377
28	0xbb19c5b0	-0.0023463778
29	0x3d976b1f	0.073934786
30	0xbd9c5175	-0.07632724
31	0x3d212e72	0.039350934
32	0x3bb976e5	0.0056599253
33	0xbd37f19c	-0.04490815
34	0x3c1052ce	0.008808805
35	0x3d1cba5b	0.03826366
36	0xbd9b05ac	-0.07569441
37	0x3db3590a	0.08757217
38	0x3d2b7e85	0.041868705
39	0xbd4f2c1f	-0.050579187
40	0x3db41e99	0.087948985
41	0xbd96c8c3	-0.07362511
42	0x3d5cfd21	0.05395234
43	0x3d17653d	0.036961783
44	0xbdb88d84	-0.09011367
45	0x3daf5145	0.08560423
46	0x3d9dad57	0.076990776
47	0x3c96a2d8	0.018388197
48	0xbd695fec	-0.056976244
49	0x3daa8c28	0.08327514
50	0x3d388736	0.045050822
51	0x397a4cd8	0.00023870484
52	0xbd9df822	-0.07713343
53	0xbc9c2705	-0.019061575
54	0x3d208062	0.039184935
55	0xbbd99398	-0.006639909
56	0xbd94ee1d	-0.07271979
57	0x3cdb5db8	0.026778087
58	0x3d609d3d	0.054837454
59	0xbdabe701	-0.0839367
60	0xbd098570	-0.03357452
61	0x3ce6c5cb	0.028170487
62	0x3d84dcfa	0.064874604
63	0xbd714af6	-0.05890938

net.4.weight f4 [3, 64]
0	0xbdd50bf1	-0.10402668
1	0xbdafc8ca	-0.08583219
2	0xbdf3fa4f	-0.11912977
3	0x3d6c5b7d	0.057704438
4	0x3d58fa2b	0.052972954
5	0x3c3fb1b3	0.011700082
6	0xbdb4dad3	-0.088308
7	0x3d9376ab	0.072003685
8	0x3db651e6	0.0890234
9	0xbd4cb92a	-0.049981274
10	0xbddca407	-0.10773473
11	0xbe0033b7	-0.12519728
12	0xbddf2e9a	-0.108975604
13	0x3da25dc1	0.079280384
14	0xbc98791f	-0.018612443
15	0x3dfe284b	0.12410029
16	0xbdbd9be4	-0.092582494
17	0x3dc98967	0.098406605
18	0x3e0e3403	0.13887028
19	0xbdc5ed46	-0.09664397
20	0x3d77cba8	0.060496956
21	0xbde51e09	-0.111873694
22	0x3dba66ed	0.09101663
23	0xbd21e713	-0.03952701
24	0xbb8abc6f	-0.004233889
25	0x3b878ebb	0.004136888
26	0xbdcacf5a	-0.099028304
27	0xbd8a1ef6	-0.067441866
28	0x3d553ed5	0.052061874
29	0xbe0278b1	-0.12741353
30	0xbc79d57b	-0.015248652
31	0x3d42a3b6	0.04751941
32	0xbe041b09	-0.12900938
33	0x3e17fcac	0.1484248
34	0xbd64999e	-0.055810563
35	0x3d4eaaef	0.050455984
36	0x3d09ed1b	0.033673387
37	0xbde81dd1	-0.11333812
38	0xbdfffb73	-0.12499132
39	0x3d1d41b3	0.038392734
40	0x3e06a792	0.1314986
41	0x3b6597a9	0.0035033023
42	0xbda1a263	-0.07892301
43	0xbcfa441c	-0.030550055
44	0xbc53a38c	-0.012917411
45	0xbdc98bbd	-0.09841106
46	0xbdc623c2	-0.09674789
47	0x3e06d4b8	0.13167083
48	0x3cd51e23	0.026015347
49	0x3d098ad7	0.033579674
50	0x3dfadcef	0.12249171
51	0xbda663d8	-0.081245124
52	0xbdc282aa	-0.094975784
53	0xbd818cc6	-0.063256785
54	0xbcde2556	-0.027117413
55	0x3d8974ef	0.067117564
56	0x3d543105	0.05180456
57	0xbd98f9a4	-0.0746949
58	0x3dbe17d7	0.09281891
59	0xbcd5d2c1	-0.026101472
60	0x3c79216e	0.015205724
61	0xbdc0470c	-0.09388551
62	0x3df26e32	0.11837424
63	0x3defc58e	0.117076024
64	0x3e1d6f49	0.15374483
65	0x3d51f7b7	0.05126163
66	0xbd582306	-0.052767776
67	0xbd69286d	-0.05692332
68	0xbcf56dab	-0.02995952
69	0x3dbb1450	0.09134734
70	0xbdf584ad	-0.119881965
71	0xbdcbc2a2	-0.09949233
72	0x3dd34487	0.10315805
73	0x3c83b897	0.01607923
74	0x3d897525	0.06711797
75	0x3d970025	0.073730744
76	0x3d158725	0.036505837
77	0xbdc53091	-0.09628404
78	0x3d1004b5	0.03516074
79	0x3dd3fd2f	0.10351025
80	0x3d5c447b	0.053776246
81	0xbd8a8508	-0.06763655
82	0x3cade74c	0.021228455
83	0xbba5e0c8	-0.0050621964
84	0x3e028973	0.12747745
85	0xbde0d76c	-0.109785885
86	0xbd2b1db1	-0.041776363
87	0x3e002ae8	0.12516367
88	0x3deba0a1	0.11505247
89	0xbda6266c	-0.08112797
90	0xbd3606f9	-0.044440243
91	0xbdb48ab9	-0.08815522
92	0xbd15251a	-0.036412336
93	0xbdf244ef	-0.11829554
94	0xbd2e8429	-0.042606506
95	0x3d653cc2	0.055966146
96	0x3ca31b73	0.01991055
97	0x3b99499b	0.004677964
98	0x3dd5fcc6	0.10448603
99	0x3d6c52c0	0.057696104
100	0xbda4c740	-0.080458164
101	0xbbb4f885	-0.00552279
102	0xbdc684d6	-0.09693305
103	0xbd5a1022	-0.05323804
104	0x3db6d97b	0.089282
105	0xbd8dd306	-0.06925015
106	0x3d9f70f2	0.077852145
107	0xbe267893	-0.16256933
108	0x3cc1542a	0.023599703
109	0x3c2cf359	0.0105560655
110	0x3c853471	0.016260358
111	0x3e0788d7	0.13235794
112	0x3dd87a38	0.105701864
113	0xbe046b6c	-0.12931603
114	0x3e1bd01b	0.15216105
115	0xbd961cb3	-0.07329693
116	0x3d744d2c	0.05964391
117	0xbb6b7e46	-0.003593342
118	0xbe119a20	-0.1421895
119	0xbc812ddb	-0.015768936
120	0xbd85c139	-0.06530995
121	0xbd4d2ad4	-0.050089672
122	0xbc490bc1	-0.012270869
123	0xbd9d9d77	-0.0769605
124	0x3ddae0f7	0.1068744
125	0xbbfdc51b	-0.007744444
126	0x3d8579a2	0.0651734
127	0xbdb7eb80	-0.08980465
128	0x3d89144a	0.06693323
129	0xbd09862b	-0.03357522
130	0x3c8cf086	0.017204534
131	0x3df7d047	0.121002726
132	0xbd81004b	-0.06298884
133	0xbd7f14d7	-0.062275734
134	0x3c065058	0.008197866
135	0x3d94d36e	0.072668895
136	0x3d041713	0.032248568
137	0x3db7f198	0.08981627
138	0xbda019a6	-0.07817392
139	0xbdb30036	-0.087402746
140	0xbbaaa584	-0.0052077193
141	0xbda7a655	-0.08186022
142	0xbda8518d	-0.082186796
143	0x3d5833ee	0.0527839
144	0xbdbe45f0	-0.09290683
145	0x3dade964	0.08491781
146	0xbdbe7c98	-0.09301108
147	0xbd19cc3b	-0.037548285
148	0xbd30c873	-0.043159913
149	0xbcdd35f9	-0.027003275
150	0x3d694990	0.05695492
151	0x3d881c83	0.06646063
152	0xbd4b4dbe	-0.049634688
153	0xbd5f670c	-0.054541633
154	0xbdd8d0d4	-0.10586706
155	0xbe170573	-0.14748172
156	0x3d60450b	0.054753345
157	0x3d7b1208	0.061296493
158	0x3d1ac637	0.03778669
159	0xbddc251f	-0.10749268
160	0x3d5d3f6c	0.054015562
161	0xbdc3273c	-0.09528968
162	0xbdaa3f4a	-0.08312853
163	0xbdbd9ed9	-0.092588134
164	0x3dbe0243	0.09277775
165	0x3de62bf9	0.11238856
166	0xbc37e0af	-0.011223002
167	0xbc0f6c44	-0.00875384
168	0xbd5b1cee	-0.053494386
169	0x3dcf3111	0.101167805
170	0xbd5253bf	-0.051349398
171	0xbd896734	-0.067091376
172	0xbdfb4201	-0.122684486
173	0xbcff2927	-0.031147553
174	0xbdef8cbc	-0.11696765
175	0xbc8649a1	-0.01639253
176	0x3a94c55c	0.0011350322
177	0x3d9a1ef3	0.07525434
178	0x3c84903a	0.016182054
179	0x3c6bebec	0.01439951
180	0x3d539bec	0.05166237
181	0x3d23c56a	0.03998319
182	0x3e001def	0.12511419
183	0x3e16c95a	0.14725247
184	0x3dca6f03	0.09884455
185	0xbcb98526	-0.022646498
186	0xbd42182a	-0.047386326
187	0xbdd2c867	-0.1029213
188	0x3dad7fd7	0.08471649
189	0xbbc21e73	-0.00592404
190	0x3c5ebbe3	0.0135946
191	0xbbfd3cbb	-0.007728187

net.4.bias f4 [3]
0	0xbdd17a88	-0.10228449
1	0x3dc3d373	0.09561815
2	0x3db1d4d2	0.086831704
