uav_critic_a2c.pth (torch, 47310 bytes, 5 tensors)

net.0.weight f4 [128, 21]
00000000: 4d8e 1a3e d65d 853d bb03 d7bd daee 7bbe
00000010: cd22 79bc 0888 323e 7de9 3f3b 91f9 153e
00000020: f686 54be ae29 203e d269 ed3d f21a cdbd
00000030: bf71 abbd 9b63 493e a3bc cd3d 3913 523e
00000040: 189a 12be cad0 4d3e 30df 3c3e 3634 e9bc
00000050: c34e debc 2fa4 9bbd 9aeb 423d a253 a4bd
00000060: d534 f23c e375 18bd 3ec2 babc b85c bebd
00000070: 9bf4 3a3e 0599 6fbe 17ad 583e 4fee 023e
00000080: 8461 a63d 9139 443e fe8c dfbb ded9 41bd
00000090: aead debd 5f0e 303d 27e1 593e cb56 9fbd
000000a0: 701a 5c3d 6f79 163e 8d9d 14be 2dc2 b63c
000000b0: 0e7f 6bbb 1736 dcbc 578a 02bd 1965 183e
000000c0: b20b 77bd eb6b 913d 7468 0abe e1c7 d03d
000000d0: 6c1e 02be 4413 0abe 0d0b 94bc 728d 873b
000000e0: 37c6 c33d 6bf3 34be 4f87 26be e2e8 893c
000000f0: c29a 283e ebc6 523e 0a6b 95bd 79f8 363d
00000100: 49de 0a3e 73f8 3d3e a062 77be 5a6b ec3d
00000110: 35e4 26be f085 85bd f740 993d 80ad 9b3c
00000120: a658 9fbd 8032 16be eca6 14be 8267 5d3e
00000130: 6890 04bd b28d 003e 1eb9 3f3d 9d4c fd3d
00000140: 3abc 0dbe 1581 42be 69a7 28be 2821 2cbe
00000150: 637a aa3d fc31 2ebe 839f 5fbe c982 203e
00000160: 0db2 e33d 3401 b03d 984c 403e 75e6 1a3e
00000170: 1e06 15be bb5f b53d 08fe 363e c186 d83d
00000180: 6775 e13d 0045 a03c 780c ee3d e2ad 0b3e
00000190: 2563 823d 4d9c 603e a937 c53d e302 d63d
000001a0: 0973 a13d f9d6 bbbc 25bd 1b3e e0a7 b0bb
000001b0: a123 71be 2107 2e3e 41d1 f83c 7f7a d2bd
000001c0: 469d 9e3d a187 663d 2309 843e 188a 343e
000001d0: cb20 03be 3fe1 703e bae5 2fbe f9cf 673e
000001e0: 5c51 a53d 7894 b5bc 7640 61bd b880 763e
000001f0: bb23 783d a098 64bc 6b86 81be 5710 0e3d
00000200: e683 8c3c 1332 e9bd 2d34 1d3d af93 8cbd
00000210: cf53 fcbd c8cc 4d3e 911d 5fbe 1cdd 26be
00000220: 454e 0ebe e800 313e 800e 4b3e 23f5 48be
00000230: dfed 843d a2c9 083e 3de8 a73d 187a 1dbe
00000240: 9319 0cbe 4c86 ea3d 0d9d 54be f520 243e
00000250: 819e f8bd 49c8 65bd ef3f 8b3d 7d26 4fbe
00000260: ef13 9cbd 6134 d5bc da84 4abe 1653 52be
00000270: 8e3b 2cbe e054 2cbe 590d 293d 5b9e 00bb
00000280: ffe6 2a3e 2278 0c3e e301 c53c 5716 7c3e
00000290: fad0 c83d 5515 16be be7a f5bd 227a a03c
000002a0: 1889 e73c b67d 5f3e cd01 09be ba44 48bd
000002b0: 97ae a83d 53eb 043c 1307 98bb 11a7 2e3e
000002c0: 7321 da3d d065 323e 3456 f63c da24 7a3e
000002d0: 2db5 af3c 3689 50bc 5d0e 703d bbb8 8fbd
000002e0: 39f0 cc3d 5ca2 c2bc bfeb 543e 6043 a13b
000002f0: 20a9 04be ab4d c3bd f64b e13d ee25 bfbe
00000300: 576a 053e 4ed2 57be ae21 33be d5fa 413e
00000310: 3395 27be 80a2 4b3e fe11 8e3c 8c63 acbd
00000320: 9869 bdbd 0fa1 42bd 840a 9f3d 7263 4bbe
00000330: a324 483e 9e17 0ebe 47ee 513e 9ed3 713d
00000340: 2220 5dbd 17fb ca3d 58d4 4abe d566 5d3e
00000350: 1727 793d a550 d23d 186e b5bd 749e e2bc
00000360: 21e5 7bbd 8bb6 1bbd c639 7cbe 5c84 c6bc
00000370: 0285 6dbd 7012 d63d 8d93 223e 59d2 9a3d
00000380: 056b d2bd 66c2 183d 8c44 073d 9f62 043d
00000390: 86cb fe3b 134a 293b 2daa a5bd fc21 673d
000003a0: 2ff3 25be 6524 f63d f9ea 60be 36c8 363d
000003b0: 1343 3ebe 559f 02bd 0974 08be 7490 833c
000003c0: 06f7 553d db58 0cbd 3e23 b1bd 6673 29be
000003d0: a030 773b ac4c e03d 8e9d 0dbb 6812 14be
000003e0: 00f0 383e 2106 2b3e ba9f 393e 5a75 0c3e
000003f0: 48b9 133d b48c 40be 58df d4bc 249f cb3d
0.15093346 0.065120384 -0.104987584 -0.24602833 -0.015206051 0.17434704 0.0029283457 0.14645983
-0.20754609 0.156409 0.11592449 -0.10014905 -0.08371305 0.19666903 0.10045745 0.20515145
-0.14316595 0.20099178 0.18444514 -0.028467279 -0.027137166 -0.07599675 0.04758797 -0.08023764
0.029566208 -0.0372218 -0.0227977 -0.092950284 0.18257372 -0.23398216 0.21159779 0.1278622
0.081240684 0.19162585 -0.0068222275 -0.047326915 -0.108729705 0.042982455 0.21277295 -0.07780226
0.05373615 0.1469476 -0.14513226 0.022309387 -0.0035933885 -0.02688126 -0.031870212 0.14882316
-0.060313888 0.07100662 -0.13516408 0.10194374 -0.12706918 -0.13483912 -0.018071676 0.0041367346
0.09559291 -0.17670982 -0.16262554 0.01683468 0.16465285 0.20583694 -0.07295807 0.044670556
0.13561358 0.18551807 -0.24158716 0.11543913 -0.16297992 -0.06519687 0.07483094 0.01900363
-0.0778058 -0.14667702 -0.145168 0.21621516 -0.03236428 0.12554052 0.0468074 0.123681284
-0.13841334 -0.18994553 -0.16470112 -0.16809523 0.08324125 -0.17011255 -0.21838193 0.1567489
0.11117945 0.085939795 0.18779218 0.15126975 -0.14553115 0.0885615 0.17870343 0.10572577
0.11008721 0.019564152 0.11623472 0.1364055 0.063665666 0.21934624 0.09629757 0.10449769
0.07883269 -0.022929655 0.15208872 -0.005391106 -0.23548748 0.16994907 0.030373218 -0.102772705
0.07744841 0.05628169 0.2578822 0.17630804 -0.12805478 0.23523425 -0.17177477 0.22637929
0.08072159 -0.022165522 -0.054993115 0.2407254 0.06058095 -0.013952404 -0.25297865 0.03468355
0.017152738 -0.11386504 0.038379837 -0.06864106 -0.12320673 0.20097649 -0.21788622 -0.16295284
-0.13897045 0.17285502 0.1982975 -0.19624762 0.06490683 0.13358167 0.08198593 -0.15378606
-0.13681631 0.11451396 -0.20763035 0.16028197 -0.12139607 -0.05609921 0.06799304 -0.20229526
-0.076209895 -0.026025953 -0.19777241 -0.20539507 -0.16819593 -0.16829252 0.041272495 -0.0019625637
0.1668968 0.13717702 0.024048751 0.24617897 0.09805484 -0.14656575 -0.11986302 0.019589487
0.028263614 0.21825299 -0.13379593 -0.048893668 0.08236425 0.008112746 -0.004639515 0.17055918
0.10650911 0.17421651 0.030070402 0.2442812 0.021448696 -0.012728026 0.058607448 -0.070176564
0.10006756 -0.02375906 0.20793055 0.004921362 -0.12955141 -0.09536298 0.110008165 -0.37333626
0.13028847 -0.21076319 -0.17493317 0.18943341 -0.16365509 0.19886208 0.017342564 -0.084174246
-0.09248656 -0.04751688 0.077656776 -0.19862154 0.19545226 -0.13876197 0.20501052 0.059039705
-0.053985722 0.09911173 -0.19807565 0.21621259 0.060828295 0.10269288 -0.08858889 -0.027663447
-0.06149781 -0.038015883 -0.24631414 -0.024233036 -0.057988174 0.104527354 0.15876599 0.07559652
-0.102743186 0.037294768 0.033024356 0.032320615 0.0077757267 0.0025831505 -0.08089099 0.056428894
-0.16206048 0.120186605 -0.21964635 0.04462453 -0.18580274 -0.031890232 -0.13325514 0.016060092
0.052237533 -0.034264427 -0.086493 -0.16547927 0.0037718192 0.10952124 -0.0021608802 -0.14460146
0.18060303 0.16701557 0.18127337 0.13716641 0.03606537 -0.18803674 -0.025985405 0.09942463

net.0.bias f4 [128]
00000000: e512 ca3d ff97 2bbd 22d2 e5bd 40f6 523c
00000010: f542 c53b 05e0 15be ddc4 e03c 404e 583e
00000020: 6979 f6bd 72f1 163d d6b7 683e c5e6 613e
00000030: dcc8 083e eee6 92bd 6adb 083e c6c8 693e
00000040: 00e3 e23d b111 c4bb 9e6d 073e 4486 833d
00000050: ec05 18be dd7c da3c 40bb 93bd 9acd d63c
00000060: 6d0c e43c 8f1c 903c 9dcb db3d 85b1 333e
00000070: a2a5 15be 7256 12bd 1e0f 863c 7853 ddbd
00000080: 1803 7f3d 17e5 3f3e f965 ac3c 8851 74bd
00000090: 25e2 353e be69 a5bd d055 18be 9942 883d
000000a0: 615e 383e 869a 71bc f909 583d c069 223c
000000b0: 7f40 60be 2398 31be a7db be3c 590c 8a3d
000000c0: 473a 203e 4206 143e c98e 453e a85d 9a3d
000000d0: d1b3 493e fc04 dc3d f478 e6bd fe64 1abe
000000e0: 46d8 393e 78e0 0fbd ab70 d73c e45b 6bbb
000000f0: 3188 a13d 607e 69bd 9a96 693e f55e 2f3e
00000100: bcc6 11be 4132 0c3d 83eb 813d 7b1c b73b
00000110: cadb 11be 0fb9 463e 2311 d43d 80ce 1fbe
00000120: 2918 413e 3570 783d c55d 633e 4dbd 603e
00000130: 84d7 813d c59d 4e3e a916 d73d 35fd c33d
00000140: 4f04 883d 6fe7 e13d 48c0 753e f019 2d3d
00000150: 478c 9e3c a04a 33bd 5af5 ddbd 2f19 e1bd
00000160: 5816 6c3e 0d77 e93d 524b 5c3d d637 07be
00000170: f678 a2bd eddb 273e 86d5 dfbd bdea 113b
00000180: f37b 593e 03dd 653e 0eff ba3d c590 113e
00000190: 6220 ebbd 4ff6 ecbd 5c43 ddbd 142a 0eba
000001a0: ecc3 d93d 8e96 14be 6518 543e ce6c 553e
000001b0: ff3b 8bbd 2309 a23d c1b8 383d a5f3 9dbd
000001c0: 51b7 1cbe ef44 a03d 294f 583e e638 553e
000001d0: 22ce edbc f51e 13be a6ac 27be 4d8e e7bc
000001e0: 218d 48bd 9d0b fcbd c985 ae3c 96dd f5bd
000001f0: d829 b3bd 3d56 603e 95c1 5c3d 958a c53c
0.09866885 -0.041893 -0.1122172 0.012876093 0.006019945 -0.14636238 0.027437622 0.211236
-0.12034876 0.036851354 0.22726378 0.22060688 0.13357872 -0.071729526 0.1336495 0.22830495
0.11078453 -0.0059835543 0.1322541 0.064220935 -0.14846009 0.026670868 -0.072134495 0.026221085
0.027837956 0.017591743 0.107321955 0.17548187 -0.14613965 -0.035726972 0.01636463 -0.10806936
0.06225881 0.18739735 0.021044718 -0.059648067 0.17762049 -0.08076809 -0.14876485 0.066533275
0.18004753 -0.014746314 0.052743886 0.009912908 -0.21899603 -0.17343192 0.023298098 0.067406364
0.15647231 0.14455512 0.1929275 0.07537395 0.19697501 0.10743138 -0.11253539 -0.15077588
0.18148908 -0.03512618 0.026298841 -0.0035912925 0.078873046 -0.057005286 0.22811356 0.17126067
-0.14235967 0.034227613 0.063437484 0.005588112 -0.14243999 0.19406532 0.10354831 -0.15606117
0.18856873 0.060653884 0.22203739 0.21947213 0.063399345 0.20177372 0.10502369 0.0956978
0.06641447 0.110304706 0.2399913 0.042261064 0.019353999 -0.04377234 -0.10837813 -0.109911315
0.23055398 0.1139966 0.05378277 -0.13204893 -0.07933228 0.16392489 -0.10929398 0.002226516
0.21238689 0.2244759 0.09130679 0.14215381 -0.11480786 -0.11570417 -0.108038634 -0.000542314
0.10633072 -0.14510557 0.20712431 0.20842287 -0.06798553 0.07911899 0.04509807 -0.07712487
-0.15304305 0.07825648 0.21123947 0.20822486 -0.029028956 -0.14367278 -0.16374454 -0.028266096
-0.048962716 -0.123069026 0.021304028 -0.12005155 -0.087482154 0.21907897 0.05389555 0.024113933

net.2.weight f4 [64, 128]
00000000: e404 ffbc be43 443d 63f1 0b3c e78b 26bd
00000010: cdf7 453d c539 473c 75c7 57bd 0d54 bcbc
00000020: 890c 323d cfe9 d33d c765 ff3d 10b3 2abd
00000030: d81a b4bc a1bd 923d 9f26 84bd 7093 9f3d
00000040: 94ec 3a3d b5e8 db3d 4a87 a63c f5fc 003d
00000050: 9c33 7b3d 623c 8b3d e82f 013d bb5c d73d
00000060: 1ce8 973b f6cd 953c 61ae d7bd 854b 98bc
00000070: 8b5a ee3d 68d2 c33c f6cf 54be b9fc c23d
00000080: e12d 043e 3f6c ee3c 8344 213d 4a3e 993b
00000090: 4029 5b3d b498 593d a3bb 793d 3fbd 91bc
000000a0: 85f9 b4bc bebb e83d c3a2 ab3d f79d 09bd
000000b0: 745e 12bd c040 a8bd 341e c63d 5614 643c
000000c0: 5412 7fbc cc99 063e d5b2 14bd 998b 023e
000000d0: 3cfc c43d 8666 593d ad06 cd3d f547 da3d
000000e0: 3e06 4dbc 59ef 1fbb b37a 64bc a49b 36bd
000000f0: 8c76 e03a 02d6 c63d 0f12 323d bc51 b83d
00000100: 35fb ab3d 79e5 9a3c 5313 023c 4f89 953d
00000110: d732 523d c3e3 aaba cccc 893d 6bfd d93d
00000120: 0afe 663d c2c2 b73c fd97 693d 1e7f ec3d
00000130: c1a8 fc3c 69dd 353d 79dc 923d 28c8 9a3c
00000140: e16b 053c 8e66 ec3b ca2a 903d fe7c 5f3d
00000150: ef59 013e 9a0a 95bc 0245 aa3d cb8c 573d
00000160: c862 aabc cd50 8dbd 4398 cb3d af3c 40bd
00000170: 3d5a 193d 8984 a43c be59 59bc b266 8f3d
00000180: 1184 113d 8363 ce3d 2e0a a13d 8e14 94bc
00000190: 105b 033c 4ef3 033d a25a ae3c 50b2 b9bc
000001a0: c46a 4c3d c975 933d 0ebc 053e c3e9 623d
000001b0: da71 3d3d a7dc f53d 16cd 9d3d 7459 e53b
000001c0: 5a7c 3dbc 1d24 9d3d b786 d63d de82 c5bc
000001d0: 87d7 11be 7662 4f3d a751 2ebd 19b1 623b
000001e0: 9499 443d 37cb 86bc 4073 733b a0d0 c33d
000001f0: 2dd4 063e d7f4 833c a4e1 9dbd 4e1e 043e
00000200: 07b4 f53d 9ca9 773d b72e aabc d5a8 bfbc
00000210: 7cec ef3d d79f fe3d 2426 763d cb0b ef3d
00000220: f167 f43c 7045 e13d b396 c33d 08cb 2b3e
00000230: 0769 393d ed0b 013d e79e b63d 2921 ffbb
00000240: f2c1 df3d 2934 a63b 1394 4a3d d84b 42bc
00000250: 039a 9d3d eee9 b33d a912 8ebd 012c e73d
00000260: 52ea ccbb cd19 fa3c 5b61 ce3d 97d5 613c
00000270: 9e7e e23c 59c3 4f3c 6151 013e b3fb a93d
00000280: 2989 e33d 377e 1a3d cae8 6abd c3af f6bc
00000290: 9449 b43c f48b a33d b060 b53c bf83 f03d
000002a0: 549e 633d 8a7a 823d 65d1 f43d c4b2 0b3c
000002b0: 323b 8fbd 97d5 c63b 3b9c dc3d ac6b c8bb
000002c0: 4ba1 d33c 0dbf 513d 34c8 433d 0f5e e63d
000002d0: 408b 053d 7433 5cbc 1ed1 813d f89a 9bbc
000002e0: f8be c8bc 1e35 383d ca76 c33c 46e4 073e
000002f0: 2529 9d3d 62cb b0bc 3b9c bf3b 0928 433d
00000300: a39b 403a 7841 093e 0931 f83c 3a25 083e
00000310: 86e4 123d 4569 a23d c2e2 823d 70fc 5dbd
00000320: ad0d b5bc 6caf 853d c782 d33d 7ad6 8d3d
00000330: 00a3 853b fff1 ab3d 77c0 0e3e 0d79 4d3d
00000340: 5e0e 433b 67d4 1e3d 05c2 e83d 66a4 51bc
00000350: ce7d 2a3d e005 fa3d 9441 bc3d 3931 043e
00000360: cbb0 103e 8515 f3bc 9169 12bc 0521 7d3d
00000370: c7c5 c63d 9470 b13d 0fe4 bb3d adc8 473d
00000380: 9cda d4bc 7fe2 d63d 316f 08bd 281e c03d
00000390: f413 583d 6ceb c23d 98cc b33d 38c1 703d
000003a0: b995 d93d 720e 9b3d 0002 603c ac55 603d
000003b0: b10e 50bc 2365 c53c 6449 a03d b1a8 943d
000003c0: 25c5 68bc 3532 523b ad84 10bc 0958 0a3e
000003d0: b671 51bc f258 49bd 1018 183d e4b4 933d
000003e0: 000c 21bc cb32 ed3d b3a7 163e f685 9a3d
000003f0: 52d4 e23d 7a5b b93d 4ca4 133e b70e bd3d
-0.031130262 0.047916166 0.008541438 -0.040660765 0.048332024 0.012159769 -0.05268045 -0.022989297
0.043468986 0.1034733 0.12470584 -0.041674674 -0.021985456 0.07165075 -0.06452679 0.07791793
0.045635775 0.10737745 0.020328183 0.03149124 0.061328515 0.067986265 0.031539828 0.10515734
0.004635824 0.018286686 -0.10531307 -0.018590698 0.116383635 0.02390404 -0.20782456 0.09520859
0.12908126 0.02910435 0.03937198 0.004676615 0.053506136 0.053124145 0.06096996 -0.017790435
-0.022091636 0.11363934 0.08380654 -0.033597913 -0.03573461 -0.08215475 0.096737295 0.013920864
-0.015568335 0.13144606 -0.03630336 0.12748565 0.096184224 0.05307629 0.10011039 0.10658256
-0.012513695 -0.0024404137 -0.013945269 -0.044582024 0.0017125173 0.097087875 0.043474253 0.089999646
0.08397523 0.01890825 0.007939178 0.0730158 0.051318016 -0.0013037849 0.06728515 0.10644039
0.056394614 0.022431735 0.057029713 0.11547683 0.030842187 0.044400606 0.07170958 0.01889427
0.008143396 0.007214374 0.07039411 0.05456256 0.12631963 -0.018193532 0.083139434 0.052624505
-0.020799056 -0.06900177 0.09941151 -0.046932872 0.037439574 0.020082729 -0.013266025 0.070020095
0.03552634 0.10077574 0.0786327 -0.018076207 0.008017316 0.032214455 0.021283451 -0.022668034
0.049906507 0.072002 0.13060018 0.055398714 0.046251155 0.12004977 0.07705133 0.006999189
-0.011565292 0.07672904 0.104749136 -0.024110254 -0.14242373 0.05063101 -0.04255834 0.0034590422
0.047998026 -0.016454322 0.0037147552 0.095612764 0.13166876 0.01610796 -0.07709053 0.12902185
0.11997228 0.060464486 -0.020774228 -0.023395935 0.11715028 0.12432831 0.060094967 0.11672171
0.02983472 0.10999572 0.09550228 0.16776669 0.045266178 0.031505514 0.08917027 -0.0077859354
0.10925664 0.005072136 0.04945762 -0.011858903 0.07695391 0.08784853 -0.06937153 0.1128769
-0.006253519 0.03052988 0.10077163 0.013783834 0.027648266 0.012680852 0.126287 0.08299961
0.111101456 0.037718024 -0.05735091 -0.030113107 0.022007741 0.07985678 0.02214083 0.117438786
0.055570915 0.06371029 0.11954001 0.008526508 -0.069937125 0.0060679424 0.10771986 -0.006116351
0.025833746 0.05120759 0.04779835 0.11248409 0.032603502 -0.013440002 0.06338714 -0.018994793
-0.024505123 0.04497253 0.023860354 0.13270673 0.07673863 -0.021581355 0.0058474815 0.047645602
0.00073474104 0.1340388 0.03029682 0.13295451 0.03586247 0.07930235 0.06390907 -0.05419582
-0.022101248 0.065276 0.10327678 0.06925674 0.004078269 0.083957665 0.13940607 0.05016427
0.0029763202 0.03877678 0.11365131 -0.012795543 0.041623883 0.12208152 0.091921955 0.12909402
0.14129941 -0.029673347 -0.008936302 0.061799068 0.09705692 0.08664051 0.09174358 0.048775364
-0.025983147 0.104924195 -0.033309165 0.09380752 0.052753404 0.095175594 0.087792575 0.058778018
0.106242605 0.075711146 0.013672352 0.054769203 -0.012698815 0.024096077 0.07826498 0.07258738
-0.014207159 0.0032073383 -0.008820695 0.13510145 -0.012783458 -0.04915709 0.037132323 0.072122365
-0.009829521 0.115819536 0.1471241 0.07545082 0.11075653 0.09050651 0.14418143 0.09231322

net.2.bias f4 [64]
00000000: 7ad5 f7bc 81d0 c33d 6519 3fbc 14c0 1e3d
00000010: ac83 a73c 22d1 9d3d 86aa 913d 8999 823c
00000020: 0919 0bbd bec6 b83d 872a e73c 67ee cfbb
00000030: 9511 a339 d5e3 6ebd 3990 753d 8462 183d
00000040: f078 30bd 3065 9abc dbdd 35bd 00fc f7bc
00000050: 5c96 a03d d37b edbb 8fd3 a33b 7ed6 a6bc
00000060: ecd6 8fbd c4de 04bd 919a 9c3c d248 913d
00000070: e16b 8c3c c94b 82bd d305 973d c36d ba3c
00000080: 64e9 ec3a 554e c8bc 1b99 173d 000c 0cbd
00000090: 6ea7 eabb b4c6 04bd 6c4e d83d bb01 58bd
000000a0: 9bcc 0b3e 0a7e 9cbb b0a3 b2bb 517b f6bc
000000b0: 41f6 9d3d 58b0 b53d 10ef 6a3d 856d 8bbd
000000c0: c6ae 813d f6c5 233e 92b6 a73d 26c8 c13d
000000d0: 969e 1a3d e921 57bd 22d4 1dbd 9b4f c8bc
000000e0: a909 023e 18b7 29bd df7b 043d cf2c a63d
000000f0: 5984 053c 91f5 423d 6ce3 f6bc 0511 c4bd
-0.03025316 0.09561253 -0.011663769 0.0387574 0.020448528 0.077059045 0.07112603 0.015942352
-0.033959422 0.09022282 0.02821852 -0.0063455584 0.00031102882 -0.058322746 0.059951995 0.037203327
-0.043084085 -0.018847078 -0.04440103 -0.03027153 0.07841179 -0.007247427 0.004999585 -0.02036595
-0.07023415 -0.03243901 0.019116672 0.070939675 0.017141284 -0.06362111 0.07374158 0.022757417
0.0018074927 -0.024451414 0.037011247 -0.03419113 -0.0071610725 -0.03241606 0.10561833 -0.052736025
0.1365227 -0.004775767 -0.005451642 -0.030088099 0.07712985 0.088715255 0.057356894 -0.068079986
0.063321635 0.15993485 0.081891194 0.094620034 0.037748896 -0.052522574 -0.038532384 -0.024452021
0.12698998 -0.041434377 0.032344695 0.08114015 0.00814923 0.04759747 -0.03013774 -0.09573559

net.4.weight f4 [1, 64]
00000000: 389f bdbd a2e3 543e 584a bf3d 4868 8d3c
00000010: 27b5 e13d 4795 7fbd 5e46 67bd 4bd9 0f3d
00000020: 9085 1bbe 7ef3 27be 8c77 c1bd 5dc7 b2bd
00000030: 240c 013d 4c09 94bd 9eb8 38be bd0a 433c
00000040: 7e51 d3bd 0299 83bd 6e06 42be 77b0 793d
00000050: 8895 29be 0912 b53d 70e8 df3d 8e90 523d
00000060: 48b9 c7bd 8f72 113c 128a 1abe 411e b2bd
00000070: e7e4 3d3e 6a95 673d 539c 26be 40ef b7bd
00000080: ca75 20be aa03 dbbd bd93 6d3d 5024 97bd
00000090: 826b 213c ffd8 c83d 8be4 9abd d94c 943d
000000a0: 9e64 b43d ddbc ddbd 60d5 d1bc 4e5a 8f3d
000000b0: 241b 8b3c 0d54 b6bd 8cd2 34be d50b 013d
000000c0: a4fe 053d bf92 253e 4453 0dbe 5221 523e
000000d0: ff02 1abe 5dae 2cbe 3749 3abe cab4 2f3d
000000e0: d45a 153e b96a 8d3d 61b5 fabd 9dfd cf3d
000000f0: 1308 ba3d 6d34 d93d 2a77 fabd a0a7 f13d
-0.09258884 0.2078996 0.09340352 0.01726164 0.1102088 -0.06239822 -0.05646359 0.035119336
-0.15187669 -0.16401479 -0.0944663 -0.08729432 0.03150572 -0.07228336 -0.18039176 0.011904416
-0.10318278 -0.06425668 -0.18947765 0.060959306 -0.16560948 0.088413306 0.10933006 0.05140739
-0.097521365 0.008877411 -0.15091732 -0.08697177 0.1854435 0.056538977 -0.1627057 -0.0898118
-0.15669933 -0.10694058 0.058002222 -0.07379973 0.009852292 0.09807014 -0.07563122 0.0724122
0.08808254 -0.108270384 -0.02561444 0.06999646 0.016980715 -0.0890275 -0.17658442 0.031505425
0.032713547 0.1616926 -0.13801295 0.20520523 -0.15040205 -0.1686339 -0.18191992 0.042897023
0.1458543 0.06905121 -0.122416265 0.10155795 0.09083571 0.106057025 -0.1222976 0.1179955
