uav_actor_phase1.pth (torch, 48103 bytes, 7 tensors)

log_std f4 [3]
00000000: 8e42 ddba da7b 4bbb e91e da3b
-0.0016880797 -0.0031049163 0.006656517

net.0.weight f4 [128, 21]
00000000: a316 2abe 9e1d d5bc 0107 2b3e 070f 64bd
00000010: 50ef 0d3e 6636 e2bb 97b8 393e 3de1 4f3e
00000020: c57d d83c 2dd2 20bd 3359 27be 32af 1c3e
00000030: 2cb8 cdbd 07d8 103e dea0 cd3d fe7d 81bd
00000040: ee6a ad3d 43cd 273e 6ee8 33bd 97ba 983d
00000050: 2510 7ebd a99c f2bd 38e3 14be 3356 33be
00000060: 0922 243e acda 2d3e 3346 b8bd f3a5 33bd
00000070: d753 fe3d 9520 36be 27ae ec3d 9789 ac3d
00000080: 4d30 85bb 6a1b 50be a663 1f3e c76e 033e
00000090: d6c8 38bb 6ebf 5c3e f611 a8bd 36fc c73d
000000a0: 10bf 413d a84e 46be 855c e93d 602d 4bbd
000000b0: b6f7 0abc c027 a4bd ce03 e43d 75b1 683d
000000c0: 61e1 973d c9d6 8b3d 7cdf 113e 37cc 25be
000000d0: 6643 103e 5946 283e e4d0 21be 852e a23a
000000e0: e741 b33d b8ac 2b3e c840 42bd 6d6c 5cbe
000000f0: 1970 28be 22a8 463e 8656 83bd 82d2 923d
00000100: 97a5 b13c 4dc8 073e 9d4e bc3d 73de 0a3c
00000110: 8b62 5dbe ea64 103b 78e0 23be 1034 27bd
00000120: f7c3 973d 3939 14bc 52ff 25be 2279 35be
00000130: 56aa 1a3e 060e 24bd 2dbc dcbd d01c 3c3e
00000140: 6818 c1bc edb0 80bc 367c 3fbc dd76 a4bd
00000150: 5963 e8bd 95a5 dfbd 6f8e 46bc afa4 2dbd
00000160: 02a4 fcbd eda1 3b3e 6a82 013e ffbd b2bd
00000170: 8676 723d b75e 49be e84d df3d 77e8 383d
00000180: cc96 16be 06c2 ad3d 2064 253e 6e56 5e3e
00000190: 9e28 a83d 7ce0 44be 4e79 5d3e 73a2 aa3d
000001a0: dde0 4a3e da0c 4c3e 4f32 f5bd 5484 603c
000001b0: 4678 32be b5f9 5dbe f025 5b3e 6b7a 16bd
000001c0: d962 e53d 5835 cdbd 6abc babd 54e8 03be
000001d0: cbf0 16be 850d 16be afa1 3e3d ce34 a93d
000001e0: b1a5 27be 1381 0cbe 8f7f 163e d380 e23d
000001f0: db7b cdbd da8f f33d 999a 64bc 635f 56be
00000200: 6bce 47be e4f0 0abe 2688 10bd 2951 b9bd
00000210: 9092 3cbe 40c1 433d 7822 203c d73e bdbd
00000220: de03 073d ffb5 09be 34b5 b2bd 98df cf3c
00000230: 4509 f9bd 54e1 b23d 40f5 2c3e a04b 5d3e
00000240: ac54 ea3c 6ea4 1c3e 2140 183e d49d ccbc
00000250: 6a73 c53d 33b3 d0bc fd4b 943c 67bc c4bd
00000260: e675 4dbe 4bf3 4dbe ac6c 2abe 795f 0ebe
00000270: 2540 3fbe 7fee a9bb 27a2 5fbe 4351 d0bc
00000280: 68df 41bd 929f e13d e352 453d 5499 d23c
00000290: 37fd 8fbd beeb 413e c547 65be a525 373e
000002a0: caa7 103e 5901 0e3e fff5 0cbe 56cc f8bd
000002b0: b534 4f3e 9c97 50bd e708 4bbe b75d c6bc
000002c0: 0e12 f0bd 1946 843d a3e4 1dbe 2e36 eabd
000002d0: 238c 18be e077 39be e9ce 84bd 02e7 d9bb
000002e0: b3c8 0f3e 2f97 dc3d b588 52be ae69 db3d
000002f0: 48a8 513e 65b3 c03d 7b89 fb3d 6f28 acbd
00000300: 75b7 3d3e a9a9 45be ee63 c43d 7492 21bd
00000310: 69b3 3f3e 9df8 133e 2761 553e bef4 fcbb
00000320: 110c 213e aa33 393e 5fa2 9e3d a764 36be
00000330: 8529 f63c 5161 c3bd cc46 cf3d 1512 d8bc
00000340: 1f29 f43d bf20 d83d 0855 c1bd 774d 19be
00000350: 6642 8fbd 7b8c f0bd 43b4 103e 0e66 413e
00000360: c2c6 1b3e ebe0 fd3c c5c1 583e 5b7a be3c
00000370: efb4 a73d 15f0 513d e14d 9ebc f0b5 55be
00000380: dd18 193e ccb2 4c3e e531 47be 49aa 08be
00000390: 323b f8bd 2024 5d3e 0b0b 7a3c c0ce cebc
000003a0: 1b8b c7bd 24cd 993d 8c4f c4bd feaf 76bd
000003b0: bc34 5dbe 2b1a 22be 46d0 463e ffc2 333e
000003c0: 65fa 9b3d 9d2f 563d 16be f33d b574 abbc
000003d0: bb1c 6bbd 8faf 07be c128 5fbe 5e9f a83d
000003e0: 76d4 36be 521a 0ebe 1f33 21be e90b bb3d
000003f0: e165 81bc b162 1c3e fd85 44be caf1 47be
-0.16610198 -0.0260151 0.1670189 -0.055678394 0.13860822 -0.0069034575 0.18136822 0.20300765
0.02642716 -0.03926294 -0.1634262 0.15301207 -0.100448936 0.14144908 0.100404486 -0.06322859
0.08467661 0.16386895 -0.043922834 0.07457464 -0.062027115 -0.11846287 -0.14539802 -0.17513351
0.16028608 0.16977948 -0.089977644 -0.043859433 0.12418335 -0.17785867 0.115566544 0.08424681
-0.004064596 -0.20322958 0.15565357 0.12835227 -0.002819588 0.215574 -0.08206551 0.09764902
0.047301352 -0.19365942 0.113946 -0.04960382 -0.00848191 -0.08015394 0.11133538 0.05680986
0.074160345 0.068280764 0.14245409 -0.16191183 0.1408821 0.16433086 -0.15802342 0.0012373483
0.08752804 0.16765106 -0.04742506 -0.21525736 -0.16449012 0.19400075 -0.064129874 0.071690574
0.021685405 0.13260002 0.09194682 0.008475888 -0.21619622 0.0022032806 -0.16003597 -0.040821135
0.07410424 -0.009046846 -0.16210678 -0.1772199 0.1510404 -0.040052436 -0.10778079 0.18370366
-0.023571208 -0.015709365 -0.011687329 -0.08030484 -0.11347074 -0.10920254 -0.01211892 -0.042393383
-0.123359695 0.18323489 0.12647405 -0.08727645 0.059195064 -0.19665037 0.10903531 0.04514357
-0.14705962 0.08484273 0.16151476 0.21712658 0.08210872 -0.19226259 0.21628305 0.08331766
0.19812341 0.19926777 -0.11972486 0.0137034245 -0.17428693 -0.21677287 0.21401191 -0.03673784
0.11200494 -0.1001994 -0.091179684 -0.12881595 -0.14740293 -0.14653595 0.046540912 0.08262025
-0.163718 -0.13721113 0.14697097 0.110597275 -0.10033389 0.11892672 -0.013952875 -0.20934825
-0.19512336 -0.13568455 -0.03528609 -0.09048683 -0.18415284 0.04779172 0.009773843 -0.092405014
0.032962672 -0.13448332 -0.08725968 0.025375172 -0.12159971 0.08734384 0.1689043 0.2161088
0.028604828 0.152971 0.14868213 -0.024977602 0.09641154 -0.025476074 0.01810264 -0.096062474
-0.20064506 -0.2011234 -0.16643018 -0.13903607 -0.18676813 -0.0051859017 -0.218392 -0.025429374
-0.047332197 0.11016764 0.04817475 0.025707878 -0.07030719 0.18937585 -0.22390659 0.17885454
0.14126506 0.13867702 -0.13765715 -0.12148349 0.2023495 -0.050925836 -0.19827615 -0.024214609
-0.11722194 0.064586826 -0.15419249 -0.11436115 -0.14897208 -0.18112135 -0.064847775 -0.0066498527
0.14041404 0.107710235 -0.20559962 0.10713516 0.2047435 0.09409217 0.12282082 -0.084061496
0.18527015 -0.19303001 0.095893726 -0.03944631 0.18720783 0.14450307 0.20837842 -0.007719605
0.15727259 0.18086115 0.077458136 -0.17811833 0.030049095 -0.09540046 0.10120925 -0.02637581
0.11921906 0.10553121 -0.094400465 -0.14970957 -0.06995086 -0.117455445 0.14131264 0.18886587
0.15212539 0.030991038 0.21167667 0.023251703 0.08188807 0.05125435 -0.019324245 -0.20870185
0.14950891 0.1999008 -0.19452627 -0.13346209 -0.121206656 0.21595812 0.015261422 -0.02524507
-0.09743329 0.075098306 -0.09585485 -0.060226433 -0.21602148 -0.15830295 0.19415388 0.17554854
0.07616118 0.0522915 0.119014904 -0.020929674 -0.057400446 -0.13250564 -0.2179289 0.08233522
-0.17854485 -0.13877228 -0.15742157 0.09133131 -0.01579565 0.15272023 -0.19191737 -0.19525829

net.0.bias f4 [128]
00000000: f1f9 99bd 4b6e 2cbe bfeb b13d 2377 8dbd
00000010: 4e07 d8bd 7b4b d93d 4699 1fbe f47f 1e3e
00000020: 268a 593e 19c8 2c3e 8955 4abe 8d45 01be
00000030: a316 c7bd ae54 c43d 299b ca3d 63d6 173e
00000040: 5e02 213e 3010 1f3e 84cb 043e 9760 633e
00000050: a9e5 f4bd 8cf3 213e f935 ebbd d440 dbbc
00000060: 455d 77ba 5764 55be 2ac6 8d3d 9941 f8bb
00000070: f62c 003d 9b32 c83d 0ad5 0e3d b885 2bbd
00000080: 27ef 2a3d faad 013e 1af3 a83d 836b c9bd
00000090: 89cd 233e 7f45 51be ea0b 02bd 4fef 1f3d
000000a0: 35f6 0c3e eed9 513e 1d68 bc3c b947 abbd
000000b0: c879 37be 8773 38be d172 2dbe 060d 243e
000000c0: be61 45be d303 44bd 01a2 9fbb d07b 0fbe
000000d0: 56f7 0bbe 3881 063e 9df3 103e de13 c73d
000000e0: 7773 a13c a570 193d 9817 23be 2dd8 193e
000000f0: 16a6 56be 8591 1abe d016 4a3e 1dc5 93bd
00000100: 2c96 e3bd 3c76 143e bb5f b8bc 73c9 4cbe
00000110: 1b17 3f3e 1c8d e43d b111 5dbd ed36 473e
00000120: 333b 0bbe d5e3 033e 6701 93bd 9b7a 3bbe
00000130: aa8e d83d 0d3e 02bd 0ec3 183e 7263 113d
00000140: 5d59 3e3e be1d 43be cceb 13be 2806 003d
00000150: fc55 d73d 4118 523e a198 04bd 9a94 1b3d
00000160: 6366 20be 6917 2f3e 7558 ff3d 3f4f 303e
00000170: f9c5 f53d 4b8b d53c 417b 94bc 0eba 573e
00000180: 8617 4abe 6423 81bd 0d70 083d d7a8 04be
00000190: 7004 413e d0d5 1a3e 3074 243d 1be3 1a3d
000001a0: 7c3d 2ebd b62a 41be 436e 87bd fbb2 f03d
000001b0: f6d0 1abe 22ef 583e 84de 4abe a8f4 d7bc
000001c0: f50a 493e 998e 4e3e 176d 4dbe 75f2 463e
000001d0: 4756 d5bd 4077 533d e7c5 3e3e eb55 2fbe
000001e0: e78a fb3d 4f77 01be e44a fd3d 4334 0f3b
000001f0: cdc4 033e ad35 44be 113f 213e 4573 163d
-0.07518376 -0.16838948 0.08687543 -0.06907489 -0.10548268 0.106101 -0.15585813 0.15478498
0.21244106 0.16873206 -0.19759192 -0.12624188 -0.097211145 0.09586464 0.09892876 0.14827876
0.1572356 0.15533519 0.1296826 0.22204815 -0.11957867 0.15815562 -0.11484904 -0.02676431
-0.00094362005 -0.20839058 0.069225624 -0.007576179 0.031292878 0.09775277 0.03487114 -0.04187557
0.04173198 0.12664023 0.08249493 -0.09834959 0.15996374 -0.20436667 -0.031749643 0.03904658
0.13765796 0.2049329 0.022998864 -0.083632894 -0.1791755 -0.1801282 -0.1693833 0.16020593
-0.19275567 -0.04785521 -0.0048716073 -0.14012074 -0.1366857 0.1313523 0.14155431 0.09720586
0.019708378 0.03746094 -0.15926969 0.15023871 -0.20961794 -0.15094574 0.19735265 -0.07215331
-0.111126274 0.14498228 -0.022506585 -0.19998722 0.18661158 0.11159727 -0.05397195 0.19454546
-0.13596801 0.1287988 -0.07178002 -0.18308489 0.10574086 -0.031797457 0.14918157 0.03549523
0.18588777 -0.19054314 -0.14445418 0.03125587 0.10514447 0.20517065 -0.03237212 0.037983514
-0.15664057 0.17098774 0.12468044 0.1721773 0.12000651 0.026067397 -0.018125178 0.21067068
-0.19735536 -0.06305578 0.033309985 -0.12955032 0.18849349 0.15120625 0.040149868 0.03781424
-0.042539105 -0.18863949 -0.06612828 0.11752888 -0.15118775 0.21184972 -0.19811445 -0.026361778
0.19633086 0.20171584 -0.20061146 0.19428428 -0.10416847 0.051627398 0.18630181 -0.17122619
0.12282353 -0.12643169 0.123678 0.0021851219 0.12868042 -0.191611 0.15746714 0.036731023

net.2.weight f4 [64, 128]
00000000: 02b3 403c 5516 dcbc c65e 623d ff85 473d
00000010: 0200 adbd 98e9 4cbd be00 8e3c 0ff6 3e3d
00000020: cd00 9fbc e672 7a3d e311 10bd b5db 7abd
00000030: 6884 b3bd efef 6f3d 0458 333d ddb0 9d3d
00000040: 2f84 343c cbfb afbb 2c03 44bc 3781 a6bd
00000050: d8fe c53c 46bc 95bc da27 593d 73c9 9dbd
00000060: 7ffd a4bd 4fb2 163d 767f 963a 8dbd 10bd
00000070: a3d2 a8b9 bc75 063d 1cb3 6d3d d684 873a
00000080: cdde 7bbd 4c07 1d3d 99f0 9b3d 38b6 bcbd
00000090: 6220 963d 39d1 44bd 413c 313c 489f bb3c
000000a0: 71fb 3ebd cced bfbd 60c1 4abb 14e5 06bd
000000b0: bc9a cb3b ec56 973c 3bda 33bd 6565 e4bc
000000c0: ad63 4ebd 15cc 743d c63c b53d 3066 e63c
000000d0: d657 b63d ac78 7fbd bd32 643d 173f efbb
000000e0: ca20 f6ba c378 773b 7399 93bd 53f7 46bd
000000f0: c9b9 7ebd a8ac ff3c d1d8 643d 3d95 c0bd
00000100: d0b6 d5ba 44cf a03c 9e79 9abd ecfd 2d3c
00000110: 1c67 4cbc d847 bdba 44b4 e33c b24b e03c
00000120: a660 31bc 1f71 f8bc 7a48 99bd 2d36 a53b
00000130: 7ebf adbd 3082 31bd a255 a1bc 43eb 053c
00000140: f665 23bd d9b2 173b 3692 a93d 53ed 6bbd
00000150: 466e 86bd 50d9 f33c 48ef 333b b751 20bc
00000160: 2a86 693b a4fc 463d af44 a73d 1c4d 0fbd
00000170: f394 a5bc 109f fe3c 0105 103d dcb7 21bc
00000180: 62d2 9a3d 7ee8 9dbd b383 9bbd f76a fcbb
00000190: 69c6 733d 7491 b3bc 0344 a8bd 6bad 10bd
000001a0: acce f83c 6413 5bbc b41b bb3c 6100 c53a
000001b0: d94a 6fbc e43b 473d 852f 583d 3492 2cbc
000001c0: 9ed9 373d a675 30bc ddef 82bd 1421 843d
000001d0: 6c4e 443d 2f9b 5e3c 8415 74bd 0787 2ebd
000001e0: 3563 2abd d315 d13c 1e7c 963d 5c1a ab3d
000001f0: 4125 aa3c e1b5 81bd e19c 59bd a6fe b93d
00000200: aa2e b1bc 62ab 33bc 7110 82bd 226d 15bc
00000210: 5883 f3bc f0d6 033d 86c8 50bd 6f17 e5bc
00000220: a2b2 3b3d 330c ad3d 43ac f2bc a790 a43c
00000230: 319f 9fbd ee2e 7bbb db09 053d 50f7 713d
00000240: 5fca 0c3d c75f d6bc 2542 4c3d ea5a f4bb
00000250: f29f 563c ab79 3bbc d543 ca3c 54c3 f1bc
00000260: e31b 3ebc f192 9dbd f0ac acbd 5ac1 483d
00000270: 6b35 0d3d 1241 6b3b e3ef 603d 5d16 293c
00000280: 5ddc 413d 17e1 87bd ab7c 5f3d c46d ee3c
00000290: 27d5 b8bb 10e6 66bd 8766 34bd 68f7 4abd
000002a0: 059c 573d f887 b63b 0ba4 1f3d 8fd3 9c3d
000002b0: 9142 7bb9 ed2e b83d 93e4 4abd e6eb 8b3d
000002c0: a5e0 82bd 7705 9d3c 43dd 673d e330 7a3c
000002d0: f667 233d 3006 27bd eec9 99bd 0011 35bd
000002e0: 32ce 54bc a712 f3bc 1f9b a4bd 4432 ab3d
000002f0: dd5f a43d b5c1 b73d f497 3d3d 173c c2bd
00000300: 69c9 3b3d f61b 82bd 1b6f 373d c407 4ebd
00000310: a2ee 56bd 70b3 af3d 012b 8fbd 38b7 bbbc
00000320: fc03 963d 8132 673d d1c3 863d 40e4 5e3d
00000330: cae4 71bd f283 a53c 412a 1b3b 970a a53c
00000340: 6cee 12bd c0f4 8f3d 3884 bdbd 0756 253d
00000350: a7ea a93c 00ca 0a3d 6791 30bd 854e 06bd
00000360: eaec 403d b8a5 9dbd cf82 99bd 1293 0a3d
00000370: 01a7 a5bb 3fbb 653c a196 8e3d 5f4c 293a
00000380: dbe6 2e3d 89ee a93c 13f7 2dbd f449 91bd
00000390: 0eb4 853d 6312 f5bc 83c7 6fbd c349 41bd
000003a0: 5c7f 873d ce4a 7c3d b1b1 803d f2a4 0c3d
000003b0: 9c7d bfbd 340d 613d d7da 4b3d 7970 b43d
000003c0: ed15 aebc 4f39 b0bd 8b29 9b3c 5136 6d3d
000003d0: df21 753c 45cf 99bc 5e3a c53c b33b bcbc
000003e0: bf6a 663c 8ba5 863c f498 803d f418 833d
000003f0: 6055 733d 1f28 79bd 2e97 203d aae5 aa3d
0.011761429 -0.026866117 0.055266164 0.048711773 -0.08447267 -0.05002746 0.017334338 0.04662138
-0.019409562 0.061144732 -0.035173308 -0.061244685 -0.08765489 0.058578428 0.04378511 0.076997496
0.011017843 -0.005370592 -0.011963647 -0.081301145 0.02416937 -0.018278252 0.05301652 -0.07704439
-0.08056163 0.036791142 0.0011482078 -0.03533702 -0.00032200394 0.032827124 0.05803214 0.0010339271
-0.061491776 0.038337037 0.0761425 -0.09214443 0.07330395 -0.048051093 0.010817588 0.0229031
-0.046626512 -0.09371528 -0.0030938014 -0.03293331 0.006213514 0.018474065 -0.043909293 -0.02788038
-0.050388027 0.05976494 0.08849482 0.028124899 0.08903472 -0.06237094 0.05571245 -0.007301222
-0.0018778082 0.0037761189 -0.072070025 -0.04857571 -0.062188897 0.031210259 0.055870835 -0.09403465
-0.0016305093 0.019630082 -0.07542728 0.010619622 -0.012475755 -0.0014440967 0.027795918 0.027379844
-0.010826265 -0.030327378 -0.07484527 0.0050418586 -0.0848379 -0.043337047 -0.019694153 0.008173767
-0.03989216 0.0023147373 0.08279841 -0.057599377 -0.06564002 0.029766709 0.0027455855 -0.009785107
0.0035632947 0.04858078 0.08167397 -0.034985647 -0.020212626 0.031081706 0.035161022 -0.009870496
0.075596586 -0.0771036 -0.07593479 -0.007703181 0.05951539 -0.021919943 -0.08216097 -0.035321634
0.030371986 -0.013371322 0.022840358 0.001503002 -0.014605247 0.0486411 0.052779693 -0.010532904
0.04488527 -0.010770237 -0.063934065 0.06451622 0.04792635 0.013586803 -0.05959083 -0.04260924
-0.041598517 0.025523102 0.07347892 0.08354637 0.020769717 -0.06333519 -0.053128127 0.090817735
-0.021628696 -0.010966154 -0.06350792 -0.009120258 -0.029725716 0.032187402 -0.050972484 -0.027965276
0.045824654 0.084495924 -0.029623156 0.020088507 -0.07794035 -0.0038327533 0.032480102 0.059073746
0.034372684 -0.026168717 0.049867768 -0.007457127 0.013099657 -0.011442582 0.024690548 -0.029512085
-0.011603328 -0.076940425 -0.08431423 0.04901252 0.03447477 0.003589694 0.054916274 0.010320273
0.047329295 -0.06634729 0.054562252 0.029105075 -0.005640644 -0.05637175 -0.04404309 -0.04955235
0.052639026 0.005570408 0.038974803 0.07657539 -0.00023962023 0.089933254 -0.04953439 0.068321034
-0.06390504 0.019167645 0.056607496 0.015270445 0.039894067 -0.040777385 -0.07509218 -0.044205666
-0.012988614 -0.02967198 -0.080373995 0.08359197 0.08026097 0.089724936 0.046287492 -0.094841175
0.045846377 -0.063529894 0.044783693 -0.050300375 -0.05247367 0.08579147 -0.06990624 -0.022914514
0.07324979 0.05644465 0.06580318 0.054416895 -0.05905608 0.020204518 0.0023676308 0.020146651
-0.035871908 0.07029104 -0.09253734 0.040365245 0.020741774 0.03388405 -0.043107416 -0.032789726
0.04710094 -0.07697624 -0.07495653 0.033831663 -0.005055309 0.014021694 0.06962324 0.00064582186
0.04270063 0.020743625 -0.042471956 -0.070941836 0.06528483 -0.029915994 -0.05853988 -0.047189485
0.06616089 0.061594777 0.06283892 0.03433699 -0.0935013 0.054944232 0.04976925 0.08810515
-0.02125069 -0.08604681 0.018940708 0.05791313 0.014961689 -0.018775592 0.024075683 -0.022977686
0.014063536 0.016436359 0.062791735 0.06401244 0.05940759 -0.060829278 0.039206676 0.08344586

net.2.bias f4 [64]
00000000: 8a71 bdbb d313 89bc 93ee 92bd 18cf a3bd
00000010: e37e 19bd 6bf9 17bc 1c7d b23d 84dd 423d
00000020: 3aa2 383d 36ab 8bbd 4326 5c3c 7385 8ebd
00000030: 6d6b 463d 4776 863d 2e17 f8bc b106 2a39
00000040: 3b00 e5bc af96 6f3d 6e5e 2c3d 8041 b3bd
00000050: 3341 babc f1f3 95bd 9dac 82bd 7d7a b8bd
00000060: cf26 a43c e1b3 6ebd 1838 d93c 4827 a7bd
00000070: 24ff 2ebc 0599 8f3d b834 a5bd 7e14 143d
00000080: bdbe 09ba 8f0e 39bd a6bc 1e3c 131c 233d
00000090: a38c a8bd 50a3 ab3d 88f7 1f3d 449b 63bd
000000a0: 89a8 b33d 56dd 9fbd f743 553d fb3c 0f3d
000000b0: cd2d b7bd 2da7 a83d ffd2 a43d 9801 533c
000000c0: 4854 75bd b2ed a43d ff95 1d3d be33 d237
000000d0: 22f8 9dbd af7f 9abc 8a78 133d 2cbe 9bbc
000000e0: e36f a1bd 8ef7 e33c ecfd 613d cf95 a7bd
000000f0: 7c97 0dbd 4cbe c93c 5745 7b3d 6598 74bd
-0.005781357 -0.016733086 -0.07174411 -0.079984844 -0.037474524 -0.0092757745 0.08715269 0.047574535
0.045076586 -0.06819765 0.013436857 -0.06959047 0.048442293 0.06565528 -0.03028449 0.00016214956
-0.027954211 0.058493312 0.042082243 -0.087527275 -0.022736168 -0.07321919 -0.063805796 -0.09007738
0.020038037 -0.058277015 0.026516005 -0.08161789 -0.010680947 0.07011608 -0.08066696 0.036152355
-0.00052545575 -0.0451799 0.009688532 0.039821696 -0.08229949 0.08380759 0.039054424 -0.055567995
0.0877238 -0.07805888 0.05206677 0.034970265 -0.08944283 0.08235011 0.08048057 0.012878798
-0.05989483 0.08053149 0.038473126 2.5058045e-05 -0.07713343 -0.018859712 0.036003627 -0.01901158
-0.07882669 0.027828004 0.0551738 -0.081828706 -0.034568295 0.024626873 0.061345425 -0.059715647

net.4.weight f4 [3, 64]
00000000: 1934 bfbd efc9 91bd 522e c0bd 1594 6e3d
00000010: 6f54 4a3d 5003 723c 6c00 a9bd a0e6 8a3d
00000020: 2ad6 943d dd08 4dbd fdee c9bd 3e65 ebbd
00000030: 1d0d e2bd d5aa 863d 2551 9dbc df2d f53d
00000040: 9030 c0bd 87d3 be3d 92d7 ef3d ca5b cdbd
00000050: 1f2e 6a3d 4f0d dabd 0dfa a83d 6f73 80bc
00000060: 6fd0 a7bb 674a 763b 97cf bbbd 0ba4 93bd
00000070: c087 4d3d 1b89 f2bd 1330 c0ba 7c90 013d
00000080: 2378 edbd 9f80 0b3e 5d2e 65bd 24e7 2b3d
00000090: 53c9 083d b59c cabd 53e2 e1bd cc4f df3c
000000a0: 1bae 023e 7de0 87bb 63ff 8ebd a3e1 07bd
000000b0: 6ebd 4abc dc25 9abd 6cd3 c4bd e448 eb3d
000000c0: edb7 d73c 1f2c f83c a889 ed3d aa82 91bd
000000d0: aa82 c2bd b0c6 82bd f03c fbbc bd01 7a3d
000000e0: c37a 223d eaf3 93bd e5c2 b13d 6bf9 dcbc
000000f0: f4c3 833c a878 95bd 21d1 e93d 8cbf dc3d
00000100: b6d7 033e 4e2a 143d e01e 66bd 1452 6abd
00000110: 5278 cebc 8eae b23d 47fc e4bd ca19 c9bd
00000120: 01bc b43d a33e 863c a9d4 8a3d bd1b 5c3d
00000130: 743b 153d 4f08 afbd 6dca 0e3d 9ad1 c03d
00000140: 360c 583d ec4c 78bd a0f5 eb3c 0ee5 e3bb
00000150: 4c47 f23d 24a3 cabd aa94 0dbd a918 f23d
00000160: 9ca7 e33d 9696 a9bd 90ae 10bd 0269 9ebd
00000170: cace 6ebc 40bf e0bd daaf f6bc 87dc 543d
00000180: e363 b13b 5802 6a3b 2a16 d63d 67d1 6f3d
00000190: 4e19 6ebd 7fce 24bc f6e2 c1bd a46f 68bd
000001a0: 370a a63d 063d 89bd d666 853d b844 0fbe
000001b0: 394e c73c 1eef 0d3c 1343 9f3c f88b ec3d
000001c0: f046 ce3d 2dc9 f0bd 71bd f53d 7a01 8abd
000001d0: 2c4d 743d c79f 43bb fc7d 04be 64dc a5bc
000001e0: 8991 6bbd 0b5c 55bd 776b 46bc 0362 87bd
000001f0: ddfa da3d c2a7 82bc 5817 743d aae1 aabd
00000200: d979 5b3d f025 1fbd e523 073c dfa2 f83d
00000210: b2e3 73bd a3bd 8bbd 79c8 283c 3747 873d
00000220: 2180 e43c 5b17 b83d 67f6 a2bd 4ece 68bd
00000230: dd5c bdbb ec0c 9fbd fae7 adbd a76e 423d
00000240: 9316 bdbd 6db9 a53d 7c9d bfbd e97b 0cbd
00000250: 41c4 2cbd de8d 9ebc b969 3f3d 30b2 923d
00000260: edae 5abd f994 68bd b71b d5bd 8550 09be
00000270: 2204 293d 1efa 753d 556b 033d ae63 babd
00000280: 5f14 4f3d e538 bfbd 788f aabd 94a3 c1bd
00000290: 399a b63d 4619 b43d a8e5 6ebb a5c8 f83b
000002a0: cab2 64bd f040 a23d 4841 57bd 364c 9abd
000002b0: d6c5 fcbd b3a5 28bd 8625 eabd 1f3f 0cbd
000002c0: 90c0 96bb 9a9a 903d 127c 9ab9 f8d0 403c
000002d0: ec9b 533d dcec 213d 29c3 ed3d 1195 f73d
000002e0: 8414 c43d 33d6 c3bc 25e0 42bd 0b19 babd
000002f0: 45d6 a53d d776 41bc adc3 1c3c 0cc1 b6bb
-0.09336109 -0.07118594 -0.09383835 0.05824669 0.04939693 0.014771298 -0.082520336 0.067822695
0.07267411 -0.05005728 -0.098600365 -0.1149392 -0.110376574 0.065755524 -0.019203732 0.1197164
-0.093842626 0.093176894 0.11711039 -0.10027273 0.05717289 -0.1064707 0.082508184 -0.015680043
-0.005121283 0.0037580968 -0.09170454 -0.07209023 0.05017829 -0.11842557 -0.0014662765 0.03163193
-0.1159518 0.13623284 -0.05595242 0.04196848 0.033395123 -0.09893171 -0.11029496 0.02725973
0.12761728 -0.004146634 -0.06982305 -0.03317417 -0.012374265 -0.07526752 -0.09610638 0.11488512
0.02633282 0.030294476 0.115985215 -0.07105 -0.094975784 -0.06385553 -0.030668706 0.061036814
0.039667856 -0.07224257 0.08679751 -0.0269744 0.016084649 -0.07298404 0.11416841 0.10778722
0.12875256 0.036173157 -0.05618179 -0.057207182 -0.025203858 0.087247 -0.111809306 -0.09819372
0.088249214 0.01638729 0.06778843 0.05373739 0.036433652 -0.085465066 0.034861017 0.09414978
0.05274602 -0.060620233 0.028803647 -0.0069547957 0.11830005 -0.09894398 -0.034565605 0.1182111
0.11115953 -0.08280675 -0.035322726 -0.077348724 -0.01457567 -0.10973978 -0.03011315 0.051968124
0.0054135188 0.0035706963 0.10453446 0.05854931 -0.0581296 -0.010058998 -0.094671175 -0.056747094
0.08107417 -0.067010924 0.06513755 -0.13991058 0.024329292 0.008662967 0.019441163 0.115501344
0.10072124 -0.11757121 0.11999024 -0.06738563 0.05964391 -0.0029849873 -0.12938684 -0.020246692
-0.05751184 -0.052089732 -0.012110583 -0.06610491 0.106923796 -0.015949134 0.059592575 -0.08343823
0.053583 -0.03885454 0.008248304 0.1214044 -0.05954332 -0.0682328 0.010301703 0.0660538
0.027893128 0.0898883 -0.07957154 -0.056837372 -0.0057788924 -0.077661365 -0.08491512 0.047468808
-0.09232821 0.08092008 -0.0935621 -0.034297857 -0.04217935 -0.019354757 0.046731684 0.07162893
-0.05338948 -0.056782696 -0.10405677 -0.13409622 0.041263707 0.060052983 0.03208478 -0.09101044
0.050556537 -0.09337024 -0.08328146 -0.09455028 0.089161344 0.08793883 -0.0036452804 0.007592278
-0.05583457 0.07922542 -0.05255249 -0.07534067 -0.12342422 -0.041173648 -0.11432938 -0.034239884
-0.004600592 0.07060738 -0.00029465609 0.011768572 0.05166237 0.039532527 0.116094895 0.12088979
0.095742255 -0.02390585 -0.047577042 -0.09086808 0.08097509 -0.011808119 0.009568137 -0.005577212

net.4.bias f4 [3]
00000000: 64d5 d3bd 49d8 c23d b1da a73d
-0.103434354 0.09513909 0.08196009
